…
      sampler {
        min_scale: 0.3
        max_scale: 1
        min_aspect_ratio: 0.5
        max_aspect_ratio: 2
      }
      sample_constraint {
        min_jaccard_overlap: 0.9
      }
      max_sample: 1
      max_trials: 50
    }
    batch_sampler {
      sampler {
        min_scale: 0.3
        max_scale: 1
        min_aspect_ratio: 0.5
        max_aspect_ratio: 2
      }
      sample_constraint {
        max_jaccard_overlap: 1
      }
      max_sample: 1
      max_trials: 50
    }
    label_map_file: "data/VOC0712/labelmap_voc.prototxt"
  }
}
layer {
  name: "conv1_1"
  type: "Convolution"
  bottom: "data"
  top: "conv1_1"
  param {
    lr_mult: 1
    decay_mult: 1
  }
  param {
    lr_mult: 2
    decay_mult: 0
  }
  convolution_param {
    num_output: 64
    pad: 1
    kernel_size: 3
    weight_filler {
      type: "xavier"
    }
    bias_filler {
      type: "constant"
      value: 0
    }
  }
}
layer {
  name: "relu1_1"
  type: "ReLU"
  bottom: "conv1_1"
  top: "conv1_1"
}
layer {
  name: "conv1_2"
  type: "Convolution"
  bottom: "conv1_1"
  top: "conv1_2"
  param {
    lr_mult: 1
    decay_mult: 1
  }
  param {
    lr_mult: 2
    decay_mult: 0
  }
  convolution_param {
    num_output: 64
    pad: 1
    kernel_size: 3
    weight_filler {
      type: "xavier"
    }
    bias_filler {
      type: "constant"
      value: 0
    }
  }
}
layer {
  name: "relu1_2"
  type: "ReLU"
  bottom: "conv1_2"
  top: "conv1_2"
}
layer {
  name: "pool1"
  type: "Pooling"
  bottom: "conv1_2"
  top: "pool1"
  pooling_param {
    pool: MAX
    kernel_size: 2
    stride: 2
  }
}
layer {
  name: "conv2_1"
  type: "Convolution"
  bottom: "pool1"
  top: "conv2_1"
  param {
    lr_mult: 1
    decay_mult: 1
  }
  param {
    lr_mult: 2
    decay_mult: 0
  }
  convolution_param {
    num_output: 128
    pad: 1
    kernel_size: 3
    weight_filler {
      type: "xavier"
    }
    bias_filler {
      type: "constant"
      value: 0
    }
  }
}
layer {
  name: "relu2_1"
  type: "ReLU"
  bottom: "conv2_1"
  top: "conv2_1"
}
layer {
  name: "conv2_2"
  type: "Convolution"
  bottom: "conv2_1"
  top: "conv2_2"
  param {
    lr_mult: 1
    decay_mult: 1
  }
  param {
    lr_mult: 2
    decay_mult: 0
  }
  convolution_param {
    num_output: 128
    pad: 1
    kernel_size: 3
    weight_filler {
      type: "xavier"
    }
    bias_filler {
      type: "constant"
      value: 0
    }
  }
}
layer {
  name: "relu2_2"
  type: "ReLU"
  bottom: "conv2_2"
  top: "conv2_2"
}
layer {
  name: "pool2"
  type: "Pooling"
  bottom: "conv2_2"
  top: "pool2"
  pooling_param {
    pool: MAX
    kernel_size: 2
    stride: 2
  }
}
layer {
  name: "conv3_1"
  type: "Convolution"
  bottom: "pool2"
  top: "conv3_1"
  param {
    lr_mult: 1
    decay_mult: 1
  }
  param {
    lr_mult: 2
    decay_mult: 0
  }
  convolution_param {
    num_output: 256
    pad: 1
    kernel_size: 3
    weight_filler {
      type: "xavier"
    }
    bias_filler {
      type: "constant"
      value: 0
    }
  }
}
layer {
  name: "relu3_1"
  type: "ReLU"
  bottom: "conv3_1"
  top: "conv3_1"
}
layer {
  name: "conv3_2"
  type: "Convolution"
  bottom: "conv3_1"
  top: "conv3_2"
  param {
    lr_mult: 1
    decay_mult: 1
  }
  param {
    lr_mult: 2
    decay_mult: 0
  }
  convolution_param {
    num_output: 256
    pad: 1
    kernel_size: 3
    weight_filler {
      type: "xavier"
    }
    bias_filler {
      type: "constant"
      value: 0
    }
  }
}
layer {
  name: "relu3_2"
  type: "ReLU"
  bottom: "conv3_2"
  top: "conv3_2"
}
layer {
  name: "conv3_3"
  type: "Convolution"
  bottom: "conv3_2"
  top: "conv3_3"
  param {
    lr_mult: 1
    decay_mult: 1
  }
  param {
    lr_mult: 2
    decay_mult: 0
  }
  convolution_param {
    num_output: 256
    pad: 1
    kernel_size: 3
    weight_filler {
      type: "xavier"
    }
    bias_filler {
      type: "constant"
      value: 0
    }
  }
}
layer {
  name: "relu3_3"
  type: "ReLU"
  bottom: "conv3_3"
  top: "conv3_3"
}
layer {
  name: "pool3"
  type: "Pooling"
  bottom: "conv3_3"
  top: "pool3"
  pooling_param {
    pool: MAX
    kernel_size: 2
    stride: 2
  }
}
layer {
  name: "conv4_1"
  type: "Convolution"
  bottom: "pool3"
  top: "conv4_1"
  param {
    lr_mult: 1
    decay_mult: 1
  }
  param {
    lr_mult: 2
    decay_mult: 0
  }
  convolution_param {
    num_output: 512
    pad: 1
    kernel_size: 3
    weight_filler {
      type: "xavier"
    }
    bias_filler {
      type: "constant"
      value: 0
    }
  }
}
layer {
  name: "relu4_1"
  type: "ReLU"
  bottom: "conv4_1"
  top: "conv4_1"
}
layer {
  name: "conv4_2"
  type: "Convolution"
  bottom: "conv4_1"
  top: "conv4_2"
  param {
    lr_mult: 1
    decay_mult: 1
  }
  param {
    lr_mult: 2
    decay_mult: 0
  }
  convolution_param {
    num_output: 512
    pad: 1
    kernel_size: 3
    weight_filler {
      type: "xavier"
    }
    bias_filler {
      type: "constant"
      value: 0
    }
  }
}
layer {
  name: "relu4_2"
  type: "ReLU"
  bottom: "conv4_2"
  top: "conv4_2"
}
layer {
  name: "conv4_3"
  type: "Convolution"
  bottom: "conv4_2"
  top: "conv4_3"
  param {
    lr_mult: 1
    decay_mult: 1
  }
  param {
    lr_mult: 2
    decay_mult: 0
  }
  convolution_param {
    num_output: 512
    pad: 1
    kernel_size: 3
    weight_filler {
      type: "xavier"
    }
    bias_filler {
      type: "constant"
      value: 0
    }
  }
}
layer {
  name: "relu4_3"
  type: "ReLU"
  bottom: "conv4_3"
  top: "conv4_3"
}
layer {
  name: "pool4"
  type: "Pooling"
  bottom: "conv4_3"
  top: "pool4"
  pooling_param {
    pool: MAX
    kernel_size: 2
    stride: 2
  }
}
layer {
  name: "conv5_1"
  type: "Convolution"
  bottom: "pool4"
  top: "conv5_1"
  param {
    lr_mult: 1
    decay_mult: 1
  }
  param {
    lr_mult: 2
    decay_mult: 0
  }
  convolution_param {
    num_output: 512
    pad: 1
    kernel_size: 3
    weight_filler {
      type: "xavier"
    }
    bias_filler {
      type: "constant"
      value: 0
    }
    dilation: 1
  }
}
layer {
  name: "relu5_1"
  type: "ReLU"
  bottom: "conv5_1"
  top: "conv5_1"
}
layer {
  name: "conv5_2"
  type: "Convolution"
  bottom: "conv5_1"
  top: "conv5_2"
  param {
    lr_mult: 1
    decay_mult: 1
  }
  param {
    lr_mult: 2
    decay_mult: 0
  }
  convolution_param {
    num_output: 512
    pad: 1
    kernel_size: 3
    weight_filler {
      type: "xavier"
    }
    bias_filler {
      type: "constant"
      value: 0
    }
    dilation: 1
  }
}
layer {
  name: "relu5_2"
  type: "ReLU"
  bottom: "conv5_2"
  top: "conv5_2"
}
layer {
  name: "conv5_3"
  type: "Convolution"
  bottom: "conv5_2"
  top: "conv5_3"
  param {
    lr_mult: 1
    decay_mult: 1
  }
  param {
    lr_mult: 2
    decay_mult: 0
  }
  convolution_param {
    num_output: 512
    pad: 1
    kernel_size: 3
    weight_filler {
      type: "xavier"
    }
    bias_filler {
      type: "constant"
      value: 0
    }
    dilation: 1
  }
}
layer {
  name: "relu5_3"
  type: "ReLU"
  bottom: "conv5_3"
  top: "conv5_3"
}
layer {
  name: "pool5"
  type: "Pooling"
  bottom: "conv5_3"
  top: "pool5"
  pooling_param {
    pool: MAX
    kernel_size: 3
    stride: 1
    pad: 1
  }
}
layer {
  name: "fc6"
  type: "Convolution"
  bottom: "pool5"
  top: "fc6"
  param {
    lr_mult: 1
    decay_mult: 1
  }
  param {
    lr_mult: 2
    decay_mult: 0
  }
  convolution_param {
    num_output: 1024
    pad: 6
    kernel_size: 3
    weight_filler {
      type: "xavier"
    }
    bias_filler {
      type: "constant"
      value: 0
    }
    dilation: 6
  }
}
layer {
  name: "relu6"
  type: "ReLU"
  bottom: "fc6"
  top: "fc6"
}
layer {
  name: "fc7"
  type: "Convolution"
  bottom: "fc6"
  top: "fc7"
  param {
    lr_mult: 1
    decay_mult: 1
  }
  param {
    lr_mult: 2
    decay_mult: 0
  }
  convolution_param {
    num_output: 1024
    kernel_size: 1
    weight_filler {
      type: "xavier"
    }
    bias_filler {
      type: "constant"
      value: 0
    }
  }
}
layer {
  name: "relu7"
  type: "ReLU"
  bottom: "fc7"
  top: "fc7"
}
layer {
  name: "conv6_1"
  type: "Convolution"
  bottom: "fc7"
  top: "conv6_1"
  param {
    lr_mult: 1
    decay_mult: 1
  }
  param {
    lr_mult: 2
    decay_mult: 0
  }
  convolution_param {
    num_output: 256
    pad: 0
    kernel_size: 1
    stride: 1
    weight_filler {
      type: "xavier"
    }
    bias_filler {
      type: "constant"
      value: 0
    }
  }
}
layer {
  name: "conv6_1_relu"
  type: "ReLU"
  bottom: "conv6_1"
  top: "conv6_1"
}
layer {
  name: "conv6_2"
  type: "Convolution"
  bottom: "conv6_1"
  top: "conv6_2"
  param {
    lr_mult: 1
    decay_mult: 1
  }
  param {
    lr_mult: 2
    decay_mult: 0
  }
  convolution_param {
    num_output: 512
    pad: 1
    kernel_size: 3
    stride: 2
    weight_filler {
      type: "xavier"
    }
    bias_filler {
      type: "constant"
      value: 0
    }
  }
}
layer {
  name: "conv6_2_relu"
  type: "ReLU"
  bottom: "conv6_2"
  top: "conv6_2"
}
layer {
  name: "conv7_1"
  type: "Convolution"
  bottom: "conv6_2"
  top: "conv7_1"
  param {
    lr_mult: 1
    decay_mult: 1
  }
  param {
    lr_mult: 2
    decay_mult: 0
  }
  convolution_param {
    num_output: 128
    pad: 0
    kernel_size: 1
    stride: 1
    weight_filler {
      type: "xavier"
    }
    bias_filler {
      type: "constant"
      value: 0
    }
  }
}
layer {
  name: "conv7_1_relu"
  type: "ReLU"
  bottom: "conv7_1"
  top: "conv7_1"
}
layer {
  name: "conv7_2"
  type: "Convolution"
  bottom: "conv7_1"
  top: "conv7_2"
  param {
    lr_mult: 1
    decay_mult: 1
  }
  param {
    lr_mult: 2
    decay_mult: 0
  }
  convolution_param {
    num_output: 256
    pad: 1
    kernel_size: 3
    stride: 2
    weight_filler {
      type: "xavier"
    }
    bias_filler {
      type: "constant"
      value: 0
    }
  }
}
layer {
  name: "conv7_2_relu"
  type: "ReLU"
  bottom: "conv7_2"
  top: "conv7_2"
}
layer {
  name: "conv8_1"
  type: "Convolution"
  bottom: "conv7_2"
  top: "conv8_1"
  param {
    lr_mult: 1
    decay_mult: 1
  }
  param {
    lr_mult: 2
    decay_mult: 0
  }
  convolution_param {
    num_output: 128
    pad: 0
    kernel_size: 1
    stride: 1
    weight_filler {
      type: "xavier"
    }
    bias_filler {
      type: "constant"
      value: 0
    }
  }
}
layer {
  name: "conv8_1_relu"
  type: "ReLU"
  bottom: "conv8_1"
  top: "conv8_1"
}
layer {
  name: "conv8_2"
  type: "Convolution"
  bottom: "conv8_1"
  top: "conv8_2"
  param {
    lr_mult: 1
    decay_mult: 1
  }
  param {
    lr_mult: 2
    decay_mult: 0
  }
  convolution_param {
    num_output: 256
    pad: 0
    kernel_size: 3
    stride: 1
    weight_filler {
      type: "xavier"
    }
    bias_filler {
      type: "constant"
      value: 0
    }
  }
}
layer {
  name: "conv8_2_relu"
  type: "ReLU"
  bottom: "conv8_2"
  top: "conv8_2"
}
layer {
  name: "conv9_1"
  type: "Convolution"
  bottom: "conv8_2"
  top: "conv9_1"
  param {
    lr_mult: 1
    decay_mult: 1
  }
  param {
    lr_mult: 2
    decay_mult: 0
  }
  convolution_param {
    num_output: 128
    pad: 0
    kernel_size: 1
    stride: 1
    weight_filler {
      type: "xavier"
    }
    bias_filler {
      type: "constant"
      value: 0
    }
  }
}
layer {
  name: "conv9_1_relu"
  type: "ReLU"
  bottom: "conv9_1"
  top: "conv9_1"
}
layer {
  name: "conv9_2"
  type: "Convolution"
  bottom: "conv9_1"
  top: "conv9_2"
  param {
    lr_mult: 1
    decay_mult: 1
  }
  param {
    lr_mult: 2
    decay_mult: 0
  }
  convolution_param {
    num_output: 256
    pad: 0
    kernel_size: 3
    stride: 1
    weight_filler {
      type: "xavier"
    }
    bias_filler {
      type: "constant"
      value: 0
    }
  }
}
layer {
  name: "conv9_2_relu"
  type: "ReLU"
  bottom: "conv9_2"
  top: "conv9_2"
}
layer {
  name: "conv4_3_norm"
  type: "Normalize"
  bottom: "conv4_3"
  top: "conv4_3_norm"
  norm_param {
    across_spatial: false
    scale_filler {
      type: "constant"
      value: 20
    }
    channel_shared: false
  }
}
layer {
  name: "conv4_3_norm_mbox_loc"
  type: "Convolution"
  bottom: "conv4_3_norm"
  top: "conv4_3_norm_mbox_loc"
  param {
    lr_mult: 1
    decay_mult: 1
  }
  param {
    lr_mult: 2
    decay_mult: 0
  }
  convolution_param {
    num_output: 16
    pad: 1
    kernel_size: 3
    stride: 1
    weight_filler {
      type: "xavier"
    }
    bias_filler {
      type: "constant"
      value: 0
    }
  }
}
layer {
  name: "conv4_3_norm_mbox_loc_perm"
  type: "Permute"
  bottom: "conv4_3_norm_mbox_loc"
  top: "conv4_3_norm_mbox_loc_perm"
  permute_param {
    order: 0
    order: 2
    order: 3
    order: 1
  }
}
layer {
  name: "conv4_3_norm_mbox_loc_flat"
  type: "Flatten"
  bottom: "conv4_3_norm_mbox_loc_perm"
  top: "conv4_3_norm_mbox_loc_flat"
  flatten_param {
    axis: 1
  }
}
layer {
  name: "conv4_3_norm_mbox_conf"
  type: "Convolution"
  bottom: "conv4_3_norm"
  top: "conv4_3_norm_mbox_conf"
  param {
    lr_mult: 1
    decay_mult: 1
  }
  param {
    lr_mult: 2
    decay_mult: 0
  }
  convolution_param {
    num_output: 84
    pad: 1
    kernel_size: 3
    stride: 1
    weight_filler {
      type: "xavier"
    }
    bias_filler {
      type: "constant"
      value: 0
    }
  }
}
layer {
  name: "conv4_3_norm_mbox_conf_perm"
  type: "Permute"
  bottom: "conv4_3_norm_mbox_conf"
  top: "conv4_3_norm_mbox_conf_perm"
  permute_param {
    order: 0
    order: 2
    order: 3
    order: 1
  }
}
layer {
  name: "conv4_3_norm_mbox_conf_flat"
  type: "Flatten"
  bottom: "conv4_3_norm_mbox_conf_perm"
  top: "conv4_3_norm_mbox_conf_flat"
  flatten_param {
    axis: 1
  }
}
layer {
  name: "conv4_3_norm_mbox_priorbox"
  type: "PriorBox"
  bottom: "conv4_3_norm"
  bottom: "data"
  top: "conv4_3_norm_mbox_priorbox"
  prior_box_param {
    min_size: 30
    max_size: 60
    aspect_ratio: 2
    flip: true
    clip: false
    variance: 0.1
    variance: 0.1
    variance: 0.2
    variance: 0.2
    step: 8
    offset: 0.5
  }
}
layer {
  name: "fc7_mbox_loc"
  type: "Convolution"
  bottom: "fc7"
  top: "fc7_mbox_loc"
  param {
    lr_mult: 1
    decay_mult: 1
  }
  param {
    lr_mult: 2
    decay_mult: 0
  }
  convolution_param {
    num_output: 24
    pad: 1
    kernel_size: 3
    stride: 1
    weight_filler {
      type: "xavier"
    }
    bias_filler {
      type: "constant"
      value: 0
    }
  }
}
layer {
  name: "fc7_mbox_loc_perm"
  type: "Permute"
  bottom: "fc7_mbox_loc"
  top: "fc7_mbox_loc_perm"
  permute_param {
    order: 0
    order: 2
    order: 3
    order: 1
  }
}
layer {
  name: "fc7_mbox_loc_flat"
  type: "Flatten"
  bottom: "fc7_mbox_loc_perm"
  top: "fc7_mbox_loc_flat"
  flatten_param {
    axis: 1
  }
}
layer {
  name: "fc7_mbox_conf"
  type: "Convolution"
  bottom: "fc7"
  top: "fc7_mbox_conf"
  param {
    lr_mult: 1
    decay_mult: 1
  }
  param {
    lr_mult: 2
    decay_mult: 0
  }
  convolution_param {
    num_output: 126
    pad: 1
    kernel_size: 3
    stride: 1
    weight_filler {
      type: "xavier"
    }
    bias_filler {
      type: "constant"
      value: 0
    }
  }
}
layer {
  name: "fc7_mbox_conf_perm"
  type: "Permute"
  bottom: "fc7_mbox_conf"
  top: "fc7_mbox_conf_perm"
  permute_param {
    order: 0
    order: 2
    order: 3
    order: 1
  }
}
layer {
  name: "fc7_mbox_conf_flat"
  type: "Flatten"
  bottom: "fc7_mbox_conf_perm"
  top: "fc7_mbox_conf_flat"
  flatten_param {
    axis: 1
  }
}
layer {
  name: "fc7_mbox_priorbox"
  type: "PriorBox"
  bottom: "fc7"
  bottom: "data"
  top: "fc7_mbox_priorbox"
  prior_box_param {
    min_size: 60
    max_size: 111
    aspect_ratio: 2
    aspect_ratio: 3
    flip: true
    clip: false
    variance: 0.1
    variance: 0.1
    variance: 0.2
    variance: 0.2
    step: 16
    offset: 0.5
  }
}
layer {
  name: "conv6_2_mbox_loc"
  type: "Convolution"
  bottom: "conv6_2"
  top: "conv6_2_mbox_loc"
  param {
    lr_mult: 1
    decay_mult: 1
  }
  param {
    lr_mult: 2
    decay_mult: 0
  }
  convolution_param {
    num_output: 24
    pad: 1
    kernel_size: 3
    stride: 1
    weight_filler {
      type: "xavier"
    }
    bias_filler {
      type: "constant"
      value: 0
    }
  }
}
layer {
  name: "conv6_2_mbox_loc_perm"
  type: "Permute"
  bottom: "conv6_2_mbox_loc"
  top: "conv6_2_mbox_loc_perm"
  permute_param {
    order: 0
    order: 2
    order: 3
    order: 1
  }
}
layer {
  name: "conv6_2_mbox_loc_flat"
  type: "Flatten"
  bottom: "conv6_2_mbox_loc_perm"
  top: "conv6_2_mbox_loc_flat"
  flatten_param {
    axis: 1
  }
}
layer {
  name: "conv6_2_mbox_conf"
  type: "Convolution"
  bottom: "conv6_2"
  top: "conv6_2_mbox_conf"
  param {
    lr_mult: 1
    decay_mult: 1
  }
  param {
    lr_mult: 2
    decay_mult: 0
  }
  convolution_param {
    num_output: 126
    pad: 1
    kernel_size: 3
    stride: 1
    weight_filler {
      type: "xavier"
    }
    bias_filler {
      type: "constant"
      value: 0
    }
  }
}
layer {
  name: "conv6_2_mbox_conf_perm"
  type: "Permute"
  bottom: "conv6_2_mbox_conf"
  top: "conv6_2_mbox_conf_perm"
  permute_param {
    order: 0
    order: 2
    order: 3
    order: 1
  }
}
layer {
  name: "conv6_2_mbox_conf_flat"
  type: "Flatten"
  bottom: "conv6_2_mbox_conf_perm"
  top: "conv6_2_mbox_conf_flat"
  flatten_param {
    axis: 1
  }
}
layer {
  name: "conv6_2_mbox_priorbox"
  type: "PriorBox"
  bottom: "conv6_2"
  bottom: "data"
  top: "conv6_2_mbox_priorbox"
  prior_box_param {
    min_size: 111
    max_size: 162
    aspect_ratio: 2
    aspect_ratio: 3
    flip: true
    clip: false
    variance: 0.1
    variance: 0.1
    variance: 0.2
    variance: 0.2
    step: 32
    offset: 0.5
  }
}
layer {
  name: "conv7_2_mbox_loc"
  type: "Convolution"
  bottom: "conv7_2"
  top: "conv7_2_mbox_loc"
  param {
    lr_mult: 1
    decay_mult: 1
  }
  param {
    lr_mult: 2
    decay_mult: 0
  }
  convolution_param {
    num_output: 24
    pad: 1
    kernel_size: 3
    stride: 1
    weight_filler {
      type: "xavier"
    }
    bias_filler {
      type: "constant"
      value: 0
    }
  }
}
layer {
  name: "conv7_2_mbox_loc_perm"
  type: "Permute"
  bottom: "conv7_2_mbox_loc"
  top: "conv7_2_mbox_loc_perm"
  permute_param {
    order: 0
    order: 2
    order: 3
    order: 1
  }
}
layer {
  name: "conv7_2_mbox_loc_flat"
  type: "Flatten"
  bottom: "conv7_2_mbox_loc_perm"
  top: "conv7_2_mbox_loc_flat"
  flatten_param {
    axis: 1
  }
}
layer {
  name: "conv7_2_mbox_conf"
  type: "Convolution"
  bottom: "conv7_2"
  top: "conv7_2_mbox_conf"
  param {
    lr_mult: 1
    decay_mult: 1
  }
  param {
    lr_mult: 2
    decay_mult: 0
  }
  convolution_param {
    num_output: 126
    pad: 1
    kernel_size: 3
    stride: 1
    weight_filler {
      type: "xavier"
    }
    bias_filler {
      type: "constant"
      value: 0
    }
  }
}
layer {
  name: "conv7_2_mbox_conf_perm"
  type: "Permute"
  bottom: "conv7_2_mbox_conf"
  top: "conv7_2_mbox_conf_perm"
  permute_param {
    order: 0
    order: 2
    order: 3
    order: 1
  }
}
layer {
  name: "conv7_2_mbox_conf_flat"
  type: "Flatten"
  bottom: "conv7_2_mbox_conf_perm"
  top: "conv7_2_mbox_conf_flat"
  flatten_param {
    axis: 1
  }
}
layer {
  name: "conv7_2_mbox_priorbox"
  type: "PriorBox"
  bottom: "conv7_2"
  bottom: "data"
  top: "conv7_2_mbox_priorbox"
  prior_box_param {
    min_size: 162
    max_size: 213
    aspect_ratio: 2
    aspect_ratio: 3
    flip: true
    clip: false
    variance: 0.1
    variance: 0.1
    variance: 0.2
    variance: 0.2
    step: 64
    offset: 0.5
  }
}
layer {
  name: "conv8_2_mbox_loc"
  type: "Convolution"
  bottom: "conv8_2"
  top: "conv8_2_mbox_loc"
  param {
    lr_mult: 1
    decay_mult: 1
  }
  param {
    lr_mult: 2
    decay_mult: 0
  }
  convolution_param {
    num_output: 16
    pad: 1
    kernel_size: 3
    stride: 1
    weight_filler {
      type: "xavier"
    }
    bias_filler {
      type: "constant"
      value: 0
    }
  }
}
layer {
  name: "conv8_2_mbox_loc_perm"
  type: "Permute"
  bottom: "conv8_2_mbox_loc"
  top: "conv8_2_mbox_loc_perm"
  permute_param {
    order: 0
    order: 2
    order: 3
    order: 1
  }
}
layer {
  name: "conv8_2_mbox_loc_flat"
  type: "Flatten"
  bottom: "conv8_2_mbox_loc_perm"
  top: "conv8_2_mbox_loc_flat"
  flatten_param {
    axis: 1
  }
}
layer {
  name: "conv8_2_mbox_conf"
  type: "Convolution"
  bottom: "conv8_2"
  top: "conv8_2_mbox_conf"
  param {
    lr_mult: 1
    decay_mult: 1
  }
  param {
    lr_mult: 2
    decay_mult: 0
  }
  convolution_param {
    num_output: 84
    pad: 1
    kernel_size: 3
    stride: 1
    weight_filler {
      type: "xavier"
    }
    bias_filler {
      type: "constant"
      value: 0
    }
  }
}
layer {
  name: "conv8_2_mbox_conf_perm"
  type: "Permute"
  bottom: "conv8_2_mbox_conf"
  top: "conv8_2_mbox_conf_perm"
  permute_param {
    order: 0
    order: 2
    order: 3
    order: 1
  }
}
layer {
  name: "conv8_2_mbox_conf_flat"
  type: "Flatten"
  bottom: "conv8_2_mbox_conf_perm"
  top: "conv8_2_mbox_conf_flat"
  flatten_param {
    axis: 1
  }
}
layer {
  name: "conv8_2_mbox_priorbox"
  type: "PriorBox"
  bottom: "conv8_2"
  bottom: "data"
  top: "conv8_2_mbox_priorbox"
  prior_box_param {
    min_size: 213
    max_size: 264
    aspect_ratio: 2
    flip: true
    clip: false
    variance: 0.1
    variance: 0.1
    variance: 0.2
    variance: 0.2
    step: 100
    offset: 0.5
  }
}
layer {
  name: "conv9_2_mbox_loc"
  type: "Convolution"
  bottom: "conv9_2"
  top: "conv9_2_mbox_loc"
  param {
    lr_mult: 1
    decay_mult: 1
  }
  param {
    lr_mult: 2
    decay_mult: 0
  }
  convolution_param {
    num_output: 16
    pad: 1
    kernel_size: 3
    stride: 1
    weight_filler {
      type: "xavier"
    }
    bias_filler {
      type: "constant"
      value: 0
    }
  }
}
layer {
  name: "conv9_2_mbox_loc_perm"
  type: "Permute"
  bottom: "conv9_2_mbox_loc"
  top: "conv9_2_mbox_loc_perm"
  permute_param {
    order: 0
    order: 2
    order: 3
    order: 1
  }
}
layer {
  name: "conv9_2_mbox_loc_flat"
  type: "Flatten"
  bottom: "conv9_2_mbox_loc_perm"
  top: "conv9_2_mbox_loc_flat"
  flatten_param {
    axis: 1
  }
}
layer {
  name: "conv9_2_mbox_conf"
  type: "Convolution"
  bottom: "conv9_2"
  top: "conv9_2_mbox_conf"
  param {
    lr_mult: 1
    decay_mult: 1
  }
  param {
    lr_mult: 2
    decay_mult: 0
  }
  convolution_param {
    num_output: 84
    pad: 1
    kernel_size: 3
    stride: 1
    weight_filler {
      type: "xavier"
    }
    bias_filler {
      type: "constant"
      value: 0
    }
  }
}
layer {
  name: "conv9_2_mbox_conf_perm"
  type: "Permute"
  bottom: "conv9_2_mbox_conf"
  top: "conv9_2_mbox_conf_perm"
  permute_param {
    order: 0
    order: 2
    order: 3
    order: 1
  }
}
layer {
  name: "conv9_2_mbox_conf_flat"
  type: "Flatten"
  bottom: "conv9_2_mbox_conf_perm"
  top: "conv9_2_mbox_conf_flat"
  flatten_param {
    axis: 1
  }
}
layer {
  name: "conv9_2_mbox_priorbox"
  type: "PriorBox"
  bottom: "conv9_2"
  bottom: "data"
  top: "conv9_2_mbox_priorbox"
  prior_box_param {
    min_size: 264
    max_size: 315
    aspect_ratio: 2
    flip: true
    clip: false
    variance: 0.1
    variance: 0.1
    variance: 0.2
    variance: 0.2
    step: 300
    offset: 0.5
  }
}
layer {
  name: "mbox_loc"
  type: "Concat"
  bottom: "conv4_3_norm_mbox_loc_flat"
  bottom: "fc7_mbox_loc_flat"
  bottom: "conv6_2_mbox_loc_flat"
  bottom: "conv7_2_mbox_loc_flat"
  bottom: "conv8_2_mbox_loc_flat"
  bottom: "conv9_2_mbox_loc_flat"
  top: "mbox_loc"
  concat_param {
    axis: 1
  }
}
layer {
  name: "mbox_conf"
  type: "Concat"
  bottom: "conv4_3_norm_mbox_conf_flat"
  bottom: "fc7_mbox_conf_flat"
  bottom: "conv6_2_mbox_conf_flat"
  bottom: "conv7_2_mbox_conf_flat"
  bottom: "conv8_2_mbox_conf_flat"
  bottom: "conv9_2_mbox_conf_flat"
  top: "mbox_conf"
  concat_param {
    axis: 1
  }
}
layer {
  name: "mbox_priorbox"
  type: "Concat"
  bottom: "conv4_3_norm_mbox_priorbox"
  bottom: "fc7_mbox_priorbox"
  bottom: "conv6_2_mbox_priorbox"
  bottom: "conv7_2_mbox_priorbox"
  bottom: "conv8_2_mbox_priorbox"
  bottom: "conv9_2_mbox_priorbox"
  top: "mbox_priorbox"
  concat_param {
    axis: 2
  }
}
layer {
  name: "mbox_loss"
  type: "MultiBoxLoss"
  bottom: "mbox_loc"
  bottom: "mbox_conf"
  bottom: "mbox_priorbox"
  bottom: "label"
  top: "mbox_loss"
  include {
    phase: TRAIN
  }
  propagate_down: true
  propagate_down: true
  propagate_down: false
  propagate_down: false
  loss_param {
    normalization: VALID
  }
  multibox_loss_param {
    loc_loss_type: SMOOTH_L1
    conf_loss_type: SOFTMAX
    loc_weight: 1
    num_classes: 21
    share_location: true
    match_type: PER_PREDICTION
    overlap_threshold: 0.5
    use_prior_for_matching: true
    background_label_id: 0
    use_difficult_gt: true
    neg_pos_ratio: 3
    neg_overlap: 0.5
    code_type: CENTER_SIZE
    ignore_cross_boundary_bbox: false
    mining_type: MAX_NEGATIVE
  }
}
I0617 16:55:29.654343 27250 layer_factory.hpp:77] Creating layer data
I0617 16:55:29.654878 27250 net.cpp:100] Creating Layer data
I0617 16:55:29.654903 27250 net.cpp:408] data -> data
I0617 16:55:29.654966 27250 net.cpp:408] data -> label
---- liusanjun: /home/lsj/VOCdevkit/VOC0712/lmdb/VOC0712_trainval_lmdb
I0617 16:55:29.656741 27287 db_lmdb.cpp:36] Opened lmdb /home/lsj/VOCdevkit/VOC0712/lmdb/VOC0712_trainval_lmdb
I0617 16:55:29.676180 27250 annotated_data_layer.cpp:62] output data size: 8,3,300,300
I0617 16:55:29.697867 27250 net.cpp:150] Setting up data
I0617 16:55:29.697957 27250 net.cpp:157] Top shape: 8 3 300 300 (2160000)
I0617 16:55:29.697964 27250 net.cpp:157] Top shape: 1 1 5 8 (40)
I0617 16:55:29.697968 27250 net.cpp:165] Memory required for data: 8640160
I0617 16:55:29.697981 27250 layer_factory.hpp:77] Creating layer data_data_0_split
I0617 16:55:29.698016 27250 net.cpp:100] Creating Layer data_data_0_split
I0617 16:55:29.698024 27250 net.cpp:434] data_data_0_split <- data
I0617 16:55:29.698042 27250 net.cpp:408] data_data_0_split -> data_data_0_split_0
I0617 16:55:29.698057 27250 net.cpp:408] data_data_0_split -> data_data_0_split_1
I0617 16:55:29.698063 27250 net.cpp:408] data_data_0_split -> data_data_0_split_2
I0617 16:55:29.698070 27250 net.cpp:408] data_data_0_split -> data_data_0_split_3
I0617 16:55:29.698074 27250 net.cpp:408] data_data_0_split -> data_data_0_split_4
I0617 16:55:29.698079 27250 net.cpp:408] data_data_0_split -> data_data_0_split_5
I0617 16:55:29.698087 27250 net.cpp:408] data_data_0_split -> data_data_0_split_6
I0617 16:55:29.698194 27250 net.cpp:150] Setting up data_data_0_split
I0617 16:55:29.698202 27250 net.cpp:157] Top shape: 8 3 300 300 (2160000)
I0617 16:55:29.698206 27250 net.cpp:157] Top shape: 8 3 300 300 (2160000)
I0617 16:55:29.698210 27250 net.cpp:157] Top shape: 8 3 300 300 (2160000)
I0617 16:55:29.698215 27250 net.cpp:157] Top shape: 8 3 300 300 (2160000)
I0617 16:55:29.698218 27250 net.cpp:157] Top shape: 8 3 300 300 (2160000)
I0617 16:55:29.698221 27250 net.cpp:157] Top shape: 8 3 300 300 (2160000)
I0617 16:55:29.698226 27250 net.cpp:157] Top shape: 8 3 300 300 (2160000)
I0617 16:55:29.698230 27250 net.cpp:165] Memory required for data: 69120160
I0617 16:55:29.698232 27250 layer_factory.hpp:77] Creating layer conv1_1
I0617 16:55:29.698263 27250 net.cpp:100] Creating Layer conv1_1
I0617 16:55:29.698268 27250 net.cpp:434] conv1_1 <- data_data_0_split_0
I0617 16:55:29.698276 27250 net.cpp:408] conv1_1 -> conv1_1
I0617 16:55:29.700263 27250 net.cpp:150] Setting up conv1_1
I0617 16:55:29.700284 27250 net.cpp:157] Top shape: 8 64 300 300 (46080000)
I0617 16:55:29.700299 27250 net.cpp:165] Memory required for data: 253440160
I0617 16:55:29.700314 27250 layer_factory.hpp:77] Creating layer relu1_1
I0617 16:55:29.700337 27250 net.cpp:100] Creating Layer relu1_1
I0617 16:55:29.700341 27250 net.cpp:434] relu1_1 <- conv1_1
I0617 16:55:29.700347 27250 net.cpp:395] relu1_1 -> conv1_1 (in-place)
I0617 16:55:29.700356 27250 net.cpp:150] Setting up relu1_1
I0617 16:55:29.700361 27250 net.cpp:157] Top shape: 8 64 300 300 (46080000)
I0617 16:55:29.700363 27250 net.cpp:165] Memory required for data: 437760160
I0617 16:55:29.700367 27250 layer_factory.hpp:77] Creating layer conv1_2
I0617 16:55:29.700381 27250 net.cpp:100] Creating Layer conv1_2
I0617 16:55:29.700389 27250 net.cpp:434] conv1_2 <- conv1_1
I0617 16:55:29.700413 27250 net.cpp:408] conv1_2 -> conv1_2
I0617 16:55:29.701618 27250 net.cpp:150] Setting up conv1_2
I0617 16:55:29.701633 27250 net.cpp:157] Top shape: 8 64 300 300 (46080000)
I0617 16:55:29.701637 27250 net.cpp:165] Memory required for data: 622080160
I0617 16:55:29.701647 27250 layer_factory.hpp:77] Creating layer relu1_2
I0617 16:55:29.701653 27250 net.cpp:100] Creating Layer relu1_2
I0617 16:55:29.701656 27250 net.cpp:434] relu1_2 <- conv1_2
I0617 16:55:29.701663 27250 net.cpp:395] relu1_2 -> conv1_2 (in-place)
I0617 16:55:29.701669 27250 net.cpp:150] Setting up relu1_2
I0617 16:55:29.701674 27250 net.cpp:157] Top shape: 8 64 300 300 (46080000)
I0617 16:55:29.701678 27250 net.cpp:165] Memory required for data: 806400160
I0617 16:55:29.701681 27250 layer_factory.hpp:77] Creating layer pool1
I0617 16:55:29.701696 27250 net.cpp:100] Creating Layer pool1
I0617 16:55:29.701699 27250 net.cpp:434] pool1 <- conv1_2
I0617 16:55:29.701704 27250 net.cpp:408] pool1 -> pool1
I0617 16:55:29.701766 27250 net.cpp:150] Setting up pool1
I0617 16:55:29.701786 27250 net.cpp:157] Top shape: 8 64 150 150 (11520000)
I0617 16:55:29.701789 27250 net.cpp:165] Memory required for data: 852480160
I0617 16:55:29.701792 27250 layer_factory.hpp:77] Creating layer conv2_1
I0617 16:55:29.701820 27250 net.cpp:100] Creating Layer conv2_1
I0617 16:55:29.701825 27250 net.cpp:434] conv2_1 <- pool1
I0617 16:55:29.701833 27250 net.cpp:408] conv2_1 -> conv2_1
I0617 16:55:29.702563 27250 net.cpp:150] Setting up conv2_1
I0617 16:55:29.702572 27250 net.cpp:157] Top shape: 8 128 150 150 (23040000)
I0617 16:55:29.702575 27250 net.cpp:165] Memory required for data: 944640160
I0617 16:55:29.702584 27250 layer_factory.hpp:77] Creating layer relu2_1
I0617 16:55:29.702592 27250 net.cpp:100] Creating Layer relu2_1
I0617 16:55:29.702596 27250 net.cpp:434] relu2_1 <- conv2_1
I0617 16:55:29.702601 27250 net.cpp:395] relu2_1 -> conv2_1 (in-place)
I0617 16:55:29.702607 27250 net.cpp:150] Setting up relu2_1
I0617 16:55:29.702611 27250 net.cpp:157] Top shape: 8 128 150 150 (23040000)
I0617 16:55:29.702615 27250 net.cpp:165] Memory required for data: 1036800160
I0617 16:55:29.702617 27250 layer_factory.hpp:77] Creating layer conv2_2
I0617 16:55:29.702627 27250 net.cpp:100] Creating Layer conv2_2
I0617 16:55:29.702635 27250 net.cpp:434] conv2_2 <- conv2_1
I0617 16:55:29.702642 27250 net.cpp:408] conv2_2 -> conv2_2
I0617 16:55:29.705051 27250 net.cpp:150] Setting up conv2_2
I0617 16:55:29.705070 27250 net.cpp:157] Top shape: 8 128 150 150 (23040000)
I0617 16:55:29.705085 27250 net.cpp:165] Memory required for data: 1128960160
I0617 16:55:29.705090 27250 layer_factory.hpp:77] Creating layer relu2_2
I0617 16:55:29.705099 27250 net.cpp:100] Creating Layer relu2_2
I0617 16:55:29.705103 27250 net.cpp:434] relu2_2 <- conv2_2
I0617 16:55:29.705121 27250 net.cpp:395] relu2_2 -> conv2_2 (in-place)
I0617 16:55:29.705128 27250 net.cpp:150] Setting up relu2_2
I0617 16:55:29.705133 27250 net.cpp:157] Top shape: 8 128 150 150 (23040000)
I0617 16:55:29.705137 27250 net.cpp:165] Memory required for data: 1221120160
I0617 16:55:29.705139 27250 layer_factory.hpp:77] Creating layer pool2
I0617 16:55:29.705147 27250 net.cpp:100] Creating Layer pool2
I0617 16:55:29.705152 27250 net.cpp:434] pool2 <- conv2_2
I0617 16:55:29.705157 27250 net.cpp:408] pool2 -> pool2
I0617 16:55:29.705198 27250 net.cpp:150] Setting up pool2
I0617 16:55:29.705205 27250 net.cpp:157] Top shape: 8 128 75 75 (5760000)
I0617 16:55:29.705209 27250 net.cpp:165] Memory required for data: 1244160160
I0617 16:55:29.705211 27250 layer_factory.hpp:77] Creating layer conv3_1
I0617 16:55:29.705221 27250 net.cpp:100] Creating Layer conv3_1
I0617 16:55:29.705229 27250 net.cpp:434] conv3_1 <- pool2
I0617 16:55:29.705235 27250 net.cpp:408] conv3_1 -> conv3_1
I0617 16:55:29.709440 27250 net.cpp:150] Setting up conv3_1
I0617 16:55:29.709501 27250 net.cpp:157] Top shape: 8 256 75 75 (11520000)
I0617 16:55:29.709504 27250 net.cpp:165] Memory required for data: 1290240160
I0617 16:55:29.709520 27250 layer_factory.hpp:77] Creating layer relu3_1
I0617 16:55:29.709533 27250 net.cpp:100] Creating Layer relu3_1
I0617 16:55:29.709538 27250 net.cpp:434] relu3_1 <- conv3_1
I0617 16:55:29.709558 27250 net.cpp:395] relu3_1 -> conv3_1 (in-place)
I0617 16:55:29.709568 27250 net.cpp:150] Setting up relu3_1
I0617 16:55:29.709573 27250 net.cpp:157] Top shape: 8 256 75 75 (11520000)
I0617 16:55:29.709575 27250 net.cpp:165] Memory required for data: 1336320160
I0617 16:55:29.709578 27250 layer_factory.hpp:77] Creating layer conv3_2
I0617 16:55:29.709594 27250 net.cpp:100] Creating Layer conv3_2
I0617 16:55:29.709596 27250 net.cpp:434] conv3_2 <- conv3_1
I0617 16:55:29.709604 27250 net.cpp:408] conv3_2 -> conv3_2
I0617 16:55:29.715037 27250 net.cpp:150] Setting up conv3_2
I0617 16:55:29.715101 27250 net.cpp:157] Top shape: 8 256 75 75 (11520000)
I0617 16:55:29.715104 27250 net.cpp:165] Memory required for data: 1382400160
I0617 16:55:29.715121 27250 layer_factory.hpp:77] Creating layer relu3_2
I0617 16:55:29.715136 27250 net.cpp:100] Creating Layer relu3_2
I0617 16:55:29.715140 27250 net.cpp:434] relu3_2 <- conv3_2
I0617 16:55:29.715149 27250 net.cpp:395] relu3_2 -> conv3_2 (in-place)
I0617 16:55:29.715162 27250 net.cpp:150] Setting up relu3_2
I0617 16:55:29.715165 27250 net.cpp:157] Top shape: 8 256 75 75 (11520000)
I0617 16:55:29.715193 27250 net.cpp:165] Memory required for data: 1428480160
I0617 16:55:29.715196 27250 layer_factory.hpp:77] Creating layer conv3_3
I0617 16:55:29.715217 27250 net.cpp:100] Creating Layer conv3_3
I0617 16:55:29.715229 27250 net.cpp:434] conv3_3 <- conv3_2
I0617 16:55:29.715234 27250 net.cpp:408] conv3_3 -> conv3_3
I0617 16:55:29.721657 27250 net.cpp:150] Setting up conv3_3
I0617 16:55:29.721709 27250 net.cpp:157] Top shape: 8 256 75 75 (11520000)
I0617 16:55:29.721712 27250 net.cpp:165] Memory required for data: 1474560160
I0617 16:55:29.721722 27250 layer_factory.hpp:77] Creating layer relu3_3
I0617 16:55:29.721743 27250 net.cpp:100] Creating Layer relu3_3
I0617 16:55:29.721748 27250 net.cpp:434] relu3_3 <- conv3_3
I0617 16:55:29.721757 27250 net.cpp:395] relu3_3 -> conv3_3 (in-place)
I0617 16:55:29.721768 27250 net.cpp:150] Setting up relu3_3
I0617 16:55:29.721773 27250 net.cpp:157] Top shape: 8 256 75 75 (11520000)
I0617 16:55:29.721776 27250 net.cpp:165] Memory required for data: 1520640160
I0617 16:55:29.721781 27250 layer_factory.hpp:77] Creating layer pool3
I0617 16:55:29.721789 27250 net.cpp:100] Creating Layer pool3
I0617 16:55:29.721804 27250 net.cpp:434] pool3 <- conv3_3
I0617 16:55:29.721810 27250 net.cpp:408] pool3 -> pool3
I0617 16:55:29.721848 27250 net.cpp:150] Setting up pool3
I0617 16:55:29.721854 27250 net.cpp:157] Top shape: 8 256 38 38 (2957312)
I0617 16:55:29.721858 27250 net.cpp:165] Memory required for data: 1532469408
I0617 16:55:29.721860 27250 layer_factory.hpp:77] Creating layer conv4_1
I0617 16:55:29.721875 27250 net.cpp:100] Creating Layer conv4_1
I0617 16:55:29.721880 27250 net.cpp:434] conv4_1 <- pool3
I0617 16:55:29.721886 27250 net.cpp:408] conv4_1 -> conv4_1
I0617 16:55:29.733583 27250 net.cpp:150] Setting up conv4_1
I0617 16:55:29.733640 27250 net.cpp:157] Top shape: 8 512 38 38 (5914624)
I0617 16:55:29.733645 27250 net.cpp:165] Memory required for data: 1556127904
I0617 16:55:29.733655 27250 layer_factory.hpp:77] Creating layer relu4_1
I0617 16:55:29.733670 27250 net.cpp:100] Creating Layer relu4_1
I0617 16:55:29.733676 27250 net.cpp:434] relu4_1 <- conv4_1
I0617 16:55:29.733692 27250 net.cpp:395] relu4_1 -> conv4_1 (in-place)
I0617 16:55:29.733703 27250 net.cpp:150] Setting up relu4_1
I0617 16:55:29.733708 27250 net.cpp:157] Top shape: 8 512 38 38 (5914624)
I0617 16:55:29.733711 27250 net.cpp:165] Memory required for data: 1579786400
I0617 16:55:29.733714 27250 layer_factory.hpp:77] Creating layer conv4_2
I0617 16:55:29.733729 27250 net.cpp:100] Creating Layer conv4_2
I0617 16:55:29.733732 27250 net.cpp:434] conv4_2 <- conv4_1
I0617 16:55:29.733741 27250 net.cpp:408] conv4_2 -> conv4_2
I0617 16:55:29.754672 27250 net.cpp:150] Setting up conv4_2
I0617 16:55:29.754739 27250 net.cpp:157] Top shape: 8 512 38 38 (5914624)
I0617 16:55:29.754742 27250 net.cpp:165] Memory required for data: 1603444896
I0617 16:55:29.754761 27250 layer_factory.hpp:77] Creating layer relu4_2
I0617 16:55:29.754781 27250 net.cpp:100] Creating Layer relu4_2
I0617 16:55:29.754787 27250 net.cpp:434] relu4_2 <- conv4_2
I0617 16:55:29.754802 27250 net.cpp:395] relu4_2 -> conv4_2 (in-place)
I0617 16:55:29.754814 27250 net.cpp:150] Setting up relu4_2
I0617 16:55:29.754818 27250 net.cpp:157] Top shape: 8 512 38 38 (5914624)
I0617 16:55:29.754822 27250 net.cpp:165] Memory required for data: 1627103392
I0617 16:55:29.754824 27250 layer_factory.hpp:77] Creating layer conv4_3
I0617 16:55:29.754837 27250 net.cpp:100] Creating Layer conv4_3
I0617 16:55:29.754840 27250 net.cpp:434] conv4_3 <- conv4_2
I0617 16:55:29.754853 27250 net.cpp:408] conv4_3 -> conv4_3
I0617 16:55:29.755975 27288 blocking_queue.cpp:50] Waiting for data
I0617 16:55:29.775475 27250 net.cpp:150] Setting up conv4_3
I0617 16:55:29.775540 27250 net.cpp:157] Top shape: 8 512 38 38 (5914624)
I0617 16:55:29.775545 27250 net.cpp:165] Memory required for data: 1650761888
I0617 16:55:29.775554 27250 layer_factory.hpp:77] Creating layer relu4_3
I0617 16:55:29.775583 27250 net.cpp:100] Creating Layer relu4_3
I0617 16:55:29.775626 27250 net.cpp:434] relu4_3 <- conv4_3
I0617 16:55:29.775635 27250 net.cpp:395] relu4_3 -> conv4_3 (in-place)
I0617 16:55:29.775652 27250 net.cpp:150] Setting up relu4_3
I0617 16:55:29.775657 27250 net.cpp:157] Top shape: 8 512 38 38 (5914624)
I0617 16:55:29.775660 27250 net.cpp:165] Memory required for data: 1674420384
I0617 16:55:29.775663 27250 layer_factory.hpp:77] Creating layer conv4_3_relu4_3_0_split
I0617 16:55:29.775671 27250 net.cpp:100] Creating Layer conv4_3_relu4_3_0_split
I0617 16:55:29.775673 27250 net.cpp:434] conv4_3_relu4_3_0_split <- conv4_3
I0617 16:55:29.775681 27250 net.cpp:408] conv4_3_relu4_3_0_split -> conv4_3_relu4_3_0_split_0
I0617 16:55:29.775687 27250 net.cpp:408] conv4_3_relu4_3_0_split -> conv4_3_relu4_3_0_split_1
I0617 16:55:29.775725 27250 net.cpp:150] Setting up conv4_3_relu4_3_0_split
I0617 16:55:29.775733 27250 net.cpp:157] Top shape: 8 512 38 38 (5914624)
I0617 16:55:29.775738 27250 net.cpp:157] Top shape: 8 512 38 38 (5914624)
I0617 16:55:29.775740 27250 net.cpp:165] Memory required for data: 1721737376
I0617 16:55:29.775743 27250 layer_factory.hpp:77] Creating layer pool4
I0617 16:55:29.775751 27250 net.cpp:100] Creating Layer pool4
I0617 16:55:29.775754 27250 net.cpp:434] pool4 <- conv4_3_relu4_3_0_split_0
I0617 16:55:29.775761 27250 net.cpp:408] pool4 -> pool4
I0617 16:55:29.775794 27250 net.cpp:150] Setting up pool4
I0617 16:55:29.775799 27250 net.cpp:157] Top shape: 8 512 19 19 (1478656)
I0617 16:55:29.775802 27250 net.cpp:165] Memory required for data: 1727652000
I0617 16:55:29.775805 27250 layer_factory.hpp:77] Creating layer conv5_1
I0617 16:55:29.775820 27250 net.cpp:100] Creating Layer conv5_1
I0617 16:55:29.775825 27250 net.cpp:434] conv5_1 <- pool4
I0617 16:55:29.775831 27250 net.cpp:408] conv5_1 -> conv5_1
I0617 16:55:29.796675 27250 net.cpp:150] Setting up conv5_1
I0617 16:55:29.796732 27250 net.cpp:157] Top shape: 8 512 19 19 (1478656)
I0617 16:55:29.796737 27250 net.cpp:165] Memory required for data: 1733566624
I0617 16:55:29.796747 27250 layer_factory.hpp:77] Creating layer relu5_1
I0617 16:55:29.796761 27250 net.cpp:100] Creating Layer relu5_1
I0617 16:55:29.796766 27250 net.cpp:434] relu5_1 <- conv5_1
I0617 16:55:29.796777 27250 net.cpp:395] relu5_1 -> conv5_1 (in-place)
I0617 16:55:29.796794 27250 net.cpp:150] Setting up relu5_1
I0617 16:55:29.796805 27250 net.cpp:157] Top shape: 8 512 19 19 (1478656)
I0617 16:55:29.796808 27250 net.cpp:165] Memory required for data: 1739481248
I0617 16:55:29.796813 27250 layer_factory.hpp:77] Creating layer conv5_2
I0617 16:55:29.796828 27250 net.cpp:100] Creating Layer conv5_2
I0617 16:55:29.796831 27250 net.cpp:434] conv5_2 <- conv5_1
I0617 16:55:29.796836 27250 net.cpp:408] conv5_2 -> conv5_2
I0617 16:55:29.818934 27250 net.cpp:150] Setting up conv5_2
I0617 16:55:29.818986 27250 net.cpp:157] Top shape: 8 512 19 19 (1478656)
I0617 16:55:29.818998 27250 net.cpp:165] Memory required for data: 1745395872
I0617 16:55:29.819008 27250 layer_factory.hpp:77] Creating layer relu5_2
I0617 16:55:29.819031 27250 net.cpp:100] Creating Layer relu5_2
I0617 16:55:29.819037 27250 net.cpp:434] relu5_2 <- conv5_2
I0617 16:55:29.819046 27250 net.cpp:395] relu5_2 -> conv5_2 (in-place)
I0617 16:55:29.819063 27250 net.cpp:150] Setting up relu5_2
I0617 16:55:29.819068 27250 net.cpp:157] Top shape: 8 512 19 19 (1478656)
I0617 16:55:29.819072 27250 net.cpp:165] Memory required for data: 1751310496
I0617 16:55:29.819075 27250 layer_factory.hpp:77] Creating layer conv5_3
I0617 16:55:29.819089 27250 net.cpp:100] Creating Layer conv5_3
I0617 16:55:29.819093 27250 net.cpp:434] conv5_3 <- conv5_2
I0617 16:55:29.819100 27250 net.cpp:408] conv5_3 -> conv5_3
I0617 16:55:29.840154 27250 net.cpp:150] Setting up conv5_3
I0617 16:55:29.840220 27250 net.cpp:157] Top shape: 8 512 19 19 (1478656)
I0617 16:55:29.840225 27250 net.cpp:165] Memory required for data: 1757225120
I0617 16:55:29.840235 27250 layer_factory.hpp:77] Creating layer relu5_3
I0617 16:55:29.840256 27250 net.cpp:100] Creating Layer relu5_3
I0617 16:55:29.840267 27250 net.cpp:434] relu5_3 <- conv5_3
I0617 16:55:29.840297 27250 net.cpp:395] relu5_3 -> conv5_3 (in-place)
I0617 16:55:29.840311 27250 net.cpp:150] Setting up relu5_3
I0617 16:55:29.840327 27250 net.cpp:157] Top shape: 8 512 19 19 (1478656)
I0617 16:55:29.840330 27250 net.cpp:165] Memory required for data: 1763139744
I0617 16:55:29.840338 27250 layer_factory.hpp:77] Creating layer pool5
I0617 16:55:29.840348 27250 net.cpp:100] Creating Layer pool5
I0617 16:55:29.840355 27250 net.cpp:434] pool5 <- conv5_3
I0617 16:55:29.840360 27250 net.cpp:408] pool5 -> pool5
I0617 16:55:29.840400 27250 net.cpp:150] Setting up pool5
I0617 16:55:29.840407 27250 net.cpp:157] Top shape: 8 512 19 19 (1478656)
I0617 16:55:29.840409 27250 net.cpp:165] Memory required for data: 1769054368
I0617 16:55:29.840414 27250 layer_factory.hpp:77] Creating layer fc6
I0617 16:55:29.840427 27250 net.cpp:100] Creating Layer fc6
I0617 16:55:29.840432 27250 net.cpp:434] fc6 <- pool5
I0617 16:55:29.840440 27250 net.cpp:408] fc6 -> fc6
I0617 16:55:29.880992 27250 net.cpp:150] Setting up fc6
I0617 16:55:29.881068 27250 net.cpp:157] Top shape: 8 1024 19 19 (2957312)
I0617 16:55:29.881074 27250 net.cpp:165] Memory required for data: 1780883616
I0617 16:55:29.881084 27250 layer_factory.hpp:77] Creating layer relu6
I0617 16:55:29.881098 27250 net.cpp:100] Creating Layer relu6
I0617 16:55:29.881104 27250 net.cpp:434] relu6 <- fc6
I0617 16:55:29.881115 27250 net.cpp:395] relu6 -> fc6 (in-place)
I0617 16:55:29.881140 27250 net.cpp:150] Setting up relu6
I0617 16:55:29.881145 27250 net.cpp:157] Top shape: 8 1024 19 19 (2957312)
I0617 16:55:29.881150 27250 net.cpp:165] Memory required for data: 1792712864
I0617 16:55:29.881152 27250 layer_factory.hpp:77] Creating layer fc7
I0617 16:55:29.881165 27250 net.cpp:100] Creating Layer fc7
I0617 16:55:29.881168 27250 net.cpp:434] fc7 <- fc6
I0617 16:55:29.881175 27250 net.cpp:408] fc7 -> fc7
I0617 16:55:29.890470 27250 net.cpp:150] Setting up fc7
I0617 16:55:29.890527 27250 net.cpp:157] Top shape: 8 1024 19 19 (2957312)
I0617 16:55:29.890532 27250 net.cpp:165] Memory required for data: 1804542112
I0617 16:55:29.890545 27250 layer_factory.hpp:77] Creating layer relu7
I0617 16:55:29.890560 27250 net.cpp:100] Creating Layer relu7
I0617 16:55:29.890566 27250 net.cpp:434] relu7 <- fc7
I0617 16:55:29.890575 27250 net.cpp:395] relu7 -> fc7 (in-place)
I0617 16:55:29.890592 27250 net.cpp:150] Setting up relu7
I0617 16:55:29.890596 27250 net.cpp:157] Top shape: 8 1024 19 19 (2957312)
I0617 16:55:29.890599 27250 net.cpp:165] Memory required for data: 1816371360
I0617 16:55:29.890602 27250 layer_factory.hpp:77] Creating layer fc7_relu7_0_split
I0617 16:55:29.890611 27250 net.cpp:100] Creating Layer fc7_relu7_0_split
I0617 16:55:29.890621 27250 net.cpp:434] fc7_relu7_0_split <- fc7
I0617 16:55:29.890626 27250 net.cpp:408] fc7_relu7_0_split -> fc7_relu7_0_split_0
I0617 16:55:29.890633 27250 net.cpp:408] fc7_relu7_0_split -> fc7_relu7_0_split_1
I0617 16:55:29.890645 27250 net.cpp:408] fc7_relu7_0_split -> fc7_relu7_0_split_2
I0617 16:55:29.890651 27250 net.cpp:408] fc7_relu7_0_split -> fc7_relu7_0_split_3
I0617 16:55:29.890702 27250 net.cpp:150] Setting up fc7_relu7_0_split
I0617 16:55:29.890717 27250 net.cpp:157] Top shape: 8 1024 19 19 (2957312)
I0617 16:55:29.890722 27250 net.cpp:157] Top shape: 8 1024 19 19 (2957312)
I0617 16:55:29.890725 27250 net.cpp:157] Top shape: 8 1024 19 19 (2957312)
I0617 16:55:29.890729 27250 net.cpp:157] Top shape: 8 1024 19 19 (2957312)
I0617 16:55:29.890732 27250 net.cpp:165] Memory required for data: 1863688352
I0617 16:55:29.890735 27250 layer_factory.hpp:77] Creating layer conv6_1
I0617 16:55:29.890748 27250 net.cpp:100] Creating Layer conv6_1
I0617 16:55:29.890753 27250 net.cpp:434] conv6_1 <- fc7_relu7_0_split_0
I0617 16:55:29.890760 27250 net.cpp:408] conv6_1 -> conv6_1
I0617 16:55:29.893662 27250 net.cpp:150] Setting up conv6_1
I0617 16:55:29.893684 27250 net.cpp:157] Top shape: 8 256 19 19 (739328)
I0617 16:55:29.893699 27250 net.cpp:165] Memory required for data: 1866645664
I0617 16:55:29.893707 27250 layer_factory.hpp:77] Creating layer conv6_1_relu
I0617 16:55:29.893740 27250 net.cpp:100] Creating Layer conv6_1_relu
I0617 16:55:29.893746 27250 net.cpp:434] conv6_1_relu <- conv6_1
I0617 16:55:29.893751 27250 net.cpp:395] conv6_1_relu -> conv6_1 (in-place)
I0617 16:55:29.893759 27250 net.cpp:150] Setting up conv6_1_relu
I0617 16:55:29.893762 27250 net.cpp:157] Top shape: 8 256 19 19 (739328)
I0617 16:55:29.893765 27250 net.cpp:165] Memory required for data: 1869602976
I0617 16:55:29.893769 27250 layer_factory.hpp:77] Creating layer conv6_2
I0617 16:55:29.893780 27250 net.cpp:100] Creating Layer conv6_2
I0617 16:55:29.893784 27250 net.cpp:434] conv6_2 <- conv6_1
I0617 16:55:29.893790 27250 net.cpp:408] conv6_2 -> conv6_2
I0617 16:55:29.907243 27250 net.cpp:150] Setting up conv6_2
I0617 16:55:29.907327 27250 net.cpp:157] Top shape: 8 512 10 10 (409600)
I0617 16:55:29.907331 27250 net.cpp:165] Memory required for data: 1871241376
I0617 16:55:29.907354 27250 layer_factory.hpp:77] Creating layer conv6_2_relu
I0617 16:55:29.907382 27250 net.cpp:100] Creating Layer conv6_2_relu
I0617 16:55:29.907390 27250 net.cpp:434] conv6_2_relu <- conv6_2
I0617 16:55:29.907402 27250 net.cpp:395] conv6_2_relu -> conv6_2 (in-place)
I0617 16:55:29.907429 27250 net.cpp:150] Setting up conv6_2_relu
I0617 16:55:29.907441 27250 net.cpp:157] Top shape: 8 512 10 10 (409600)
I0617 16:55:29.907449 27250 net.cpp:165] Memory required for data: 1872879776
I0617 16:55:29.907454 27250 layer_factory.hpp:77] Creating layer conv6_2_conv6_2_relu_0_split
I0617 16:55:29.907466 27250 net.cpp:100] Creating Layer conv6_2_conv6_2_relu_0_split
I0617 16:55:29.907474 27250 net.cpp:434] conv6_2_conv6_2_relu_0_split <- conv6_2
I0617 16:55:29.907483 27250 net.cpp:408] conv6_2_conv6_2_relu_0_split -> conv6_2_conv6_2_relu_0_split_0
I0617 16:55:29.907502 27250 net.cpp:408] conv6_2_conv6_2_relu_0_split -> conv6_2_conv6_2_relu_0_split_1
I0617 16:55:29.907515 27250 net.cpp:408] conv6_2_conv6_2_relu_0_split -> conv6_2_conv6_2_relu_0_split_2
I0617 16:55:29.907526 27250 net.cpp:408] conv6_2_conv6_2_relu_0_split -> conv6_2_conv6_2_relu_0_split_3
I0617 16:55:29.907794 27250 net.cpp:150] Setting up conv6_2_conv6_2_relu_0_split
I0617 16:55:29.907812 27250 net.cpp:157] Top shape: 8 512 10 10 (409600)
I0617 16:55:29.907822 27250 net.cpp:157] Top shape: 8 512 10 10 (409600)
I0617 16:55:29.907833 27250 net.cpp:157] Top shape: 8 512 10 10 (409600)
I0617 16:55:29.907842 27250 net.cpp:157] Top shape: 8 512 10 10 (409600)
I0617 16:55:29.907850 27250 net.cpp:165] Memory required for data: 1879433376
I0617 16:55:29.907856 27250 layer_factory.hpp:77] Creating layer conv7_1
I0617 16:55:29.907881 27250 net.cpp:100] Creating Layer conv7_1
I0617 16:55:29.907891 27250 net.cpp:434] conv7_1 <- conv6_2_conv6_2_relu_0_split_0
I0617 16:55:29.907908 27250 net.cpp:408] conv7_1 -> conv7_1
I0617 16:55:29.908846 27250 net.cpp:150] Setting up conv7_1
I0617 16:55:29.908862 27250 net.cpp:157] Top shape: 8 128 10 10 (102400)
I0617 16:55:29.908869 27250 net.cpp:165] Memory required for data: 1879842976
I0617 16:55:29.908880 27250 layer_factory.hpp:77] Creating layer conv7_1_relu
I0617 16:55:29.908892 27250 net.cpp:100] Creating Layer conv7_1_relu
I0617 16:55:29.908900 27250 net.cpp:434] conv7_1_relu <- conv7_1
I0617 16:55:29.908910 27250 net.cpp:395] conv7_1_relu -> conv7_1 (in-place)
I0617 16:55:29.908921 27250 net.cpp:150] Setting up conv7_1_relu
I0617 16:55:29.908931 27250 net.cpp:157] Top shape: 8 128 10 10 (102400)
I0617 16:55:29.908937 27250 net.cpp:165] Memory required for data: 1880252576
I0617 16:55:29.908943 27250 layer_factory.hpp:77] Creating layer conv7_2
I0617 16:55:29.908962 27250 net.cpp:100] Creating Layer conv7_2
I0617 16:55:29.908973 27250 net.cpp:434] conv7_2 <- conv7_1
I0617 16:55:29.908985 27250 net.cpp:408] conv7_2 -> conv7_2
I0617 16:55:29.912058 27250 net.cpp:150] Setting up conv7_2
I0617 16:55:29.912072 27250 net.cpp:157] Top shape: 8 256 5 5 (51200)
I0617 16:55:29.912076 27250 net.cpp:165] Memory required for data: 1880457376
I0617 16:55:29.912082 27250 layer_factory.hpp:77] Creating layer conv7_2_relu
I0617 16:55:29.912111 27250 net.cpp:100] Creating Layer conv7_2_relu
I0617 16:55:29.912117 27250 net.cpp:434] conv7_2_relu <- conv7_2
I0617 16:55:29.912122 27250 net.cpp:395] conv7_2_relu -> conv7_2 (in-place)
I0617 16:55:29.912128 27250 net.cpp:150] Setting up conv7_2_relu
I0617 16:55:29.912132 27250 net.cpp:157] Top shape: 8 256 5 5 (51200)
I0617 16:55:29.912135 27250 net.cpp:165] Memory required for data: 1880662176
I0617 16:55:29.912139 27250 layer_factory.hpp:77] Creating layer conv7_2_conv7_2_relu_0_split
I0617 16:55:29.912144 27250 net.cpp:100] Creating Layer conv7_2_conv7_2_relu_0_split
I0617 16:55:29.912147 27250 net.cpp:434] conv7_2_conv7_2_relu_0_split <- conv7_2
I0617 16:55:29.912153 27250 net.cpp:408] conv7_2_conv7_2_relu_0_split -> conv7_2_conv7_2_relu_0_split_0
I0617 16:55:29.912160 27250 net.cpp:408] conv7_2_conv7_2_relu_0_split -> conv7_2_conv7_2_relu_0_split_1
I0617 16:55:29.912165 27250 net.cpp:408] conv7_2_conv7_2_relu_0_split -> conv7_2_conv7_2_relu_0_split_2
I0617 16:55:29.912173 27250 net.cpp:408] conv7_2_conv7_2_relu_0_split -> conv7_2_conv7_2_relu_0_split_3
I0617 16:55:29.912225 27250 net.cpp:150] Setting up conv7_2_conv7_2_relu_0_split
I0617 16:55:29.912232 27250 net.cpp:157] Top shape: 8 256 5 5 (51200)
I0617 16:55:29.912236 27250 net.cpp:157] Top shape: 8 256 5 5 (51200)
I0617 16:55:29.912240 27250 net.cpp:157] Top shape: 8 256 5 5 (51200)
I0617 16:55:29.912243 27250 net.cpp:157] Top shape: 8 256 5 5 (51200)
I0617 16:55:29.912246 27250 net.cpp:165] Memory required for data: 1881481376
I0617 16:55:29.912250 27250 layer_factory.hpp:77] Creating layer conv8_1
I0617 16:55:29.912261 27250 net.cpp:100] Creating Layer conv8_1
I0617 16:55:29.912266 27250 net.cpp:434] conv8_1 <- conv7_2_conv7_2_relu_0_split_0
I0617 16:55:29.912271 27250 net.cpp:408] conv8_1 -> conv8_1
I0617 16:55:29.912667 27250 net.cpp:150] Setting up conv8_1
I0617 16:55:29.912678 27250 net.cpp:157] Top shape: 8 128 5 5 (25600)
I0617 16:55:29.912680 27250 net.cpp:165] Memory required for data: 1881583776
I0617 16:55:29.912686 27250 layer_factory.hpp:77] Creating layer conv8_1_relu
I0617 16:55:29.912691 27250 net.cpp:100] Creating Layer conv8_1_relu
I0617 16:55:29.912694 27250 net.cpp:434] conv8_1_relu <- conv8_1
I0617 16:55:29.912700 27250 net.cpp:395] conv8_1_relu -> conv8_1 (in-place)
I0617 16:55:29.912708 27250 net.cpp:150] Setting up conv8_1_relu
I0617 16:55:29.912711 27250 net.cpp:157] Top shape: 8 128 5 5 (25600)
I0617 16:55:29.912714 27250 net.cpp:165] Memory required for data: 1881686176
I0617 16:55:29.912717 27250 layer_factory.hpp:77] Creating layer conv8_2
I0617 16:55:29.912724 27250 net.cpp:100] Creating Layer conv8_2
I0617 16:55:29.912729 27250 net.cpp:434] conv8_2 <- conv8_1
I0617 16:55:29.912734 27250 net.cpp:408] conv8_2 -> conv8_2
I0617 16:55:29.915622 27250 net.cpp:150] Setting up conv8_2
I0617 16:55:29.915673 27250 net.cpp:157] Top shape: 8 256 3 3 (18432)
I0617 16:55:29.915676 27250 net.cpp:165] Memory required for data: 1881759904
I0617 16:55:29.915684 27250 layer_factory.hpp:77] Creating layer conv8_2_relu
I0617 16:55:29.915695 27250 net.cpp:100] Creating Layer conv8_2_relu
I0617 16:55:29.915701 27250 net.cpp:434] conv8_2_relu <- conv8_2
I0617 16:55:29.915715 27250 net.cpp:395] conv8_2_relu -> conv8_2 (in-place)
I0617 16:55:29.915724 27250 net.cpp:150] Setting up conv8_2_relu
I0617 16:55:29.915729 27250 net.cpp:157] Top shape: 8 256 3 3 (18432)
I0617 16:55:29.915732 27250 net.cpp:165] Memory required for data: 1881833632
I0617 16:55:29.915735 27250 layer_factory.hpp:77] Creating layer conv8_2_conv8_2_relu_0_split
I0617 16:55:29.915743 27250 net.cpp:100] Creating Layer conv8_2_conv8_2_relu_0_split
I0617 16:55:29.915755 27250 net.cpp:434] conv8_2_conv8_2_relu_0_split <- conv8_2
I0617 16:55:29.915760 27250 net.cpp:408] conv8_2_conv8_2_relu_0_split -> conv8_2_conv8_2_relu_0_split_0
I0617 16:55:29.915766 27250 net.cpp:408] conv8_2_conv8_2_relu_0_split -> conv8_2_conv8_2_relu_0_split_1
I0617 16:55:29.915771 27250 net.cpp:408] conv8_2_conv8_2_relu_0_split -> conv8_2_conv8_2_relu_0_split_2
I0617 16:55:29.915796 27250 net.cpp:408] conv8_2_conv8_2_relu_0_split -> conv8_2_conv8_2_relu_0_split_3
I0617 16:55:29.915856 27250 net.cpp:150] Setting up conv8_2_conv8_2_relu_0_split
I0617 16:55:29.915865 27250 net.cpp:157] Top shape: 8 256 3 3 (18432)
I0617 16:55:29.915869 27250 net.cpp:157] Top shape: 8 256 3 3 (18432)
I0617 16:55:29.915874 27250 net.cpp:157] Top shape: 8 256 3 3 (18432)
I0617 16:55:29.915876 27250 net.cpp:157] Top shape: 8 256 3 3 (18432)
I0617 16:55:29.915880 27250 net.cpp:165] Memory required for data: 1882128544
I0617 16:55:29.915884 27250 layer_factory.hpp:77] Creating layer conv9_1
I0617 16:55:29.915895 27250 net.cpp:100] Creating Layer conv9_1
I0617 16:55:29.915899 27250 net.cpp:434] conv9_1 <- conv8_2_conv8_2_relu_0_split_0
I0617 16:55:29.915907 27250 net.cpp:408] conv9_1 -> conv9_1
I0617 16:55:29.916329 27250 net.cpp:150] Setting up conv9_1
I0617 16:55:29.916337 27250 net.cpp:157] Top shape: 8 128 3 3 (9216)
I0617 16:55:29.916340 27250 net.cpp:165] Memory required for data: 1882165408
I0617 16:55:29.916363 27250 layer_factory.hpp:77] Creating layer conv9_1_relu
I0617 16:55:29.916368 27250 net.cpp:100] Creating Layer conv9_1_relu
I0617 16:55:29.916373 27250 net.cpp:434] conv9_1_relu <- conv9_1
I0617 16:55:29.916378 27250 net.cpp:395] conv9_1_relu -> conv9_1 (in-place)
I0617 16:55:29.916384 27250 net.cpp:150] Setting up conv9_1_relu
I0617 16:55:29.916388 27250 net.cpp:157] Top shape: 8 128 3 3 (9216)
I0617 16:55:29.916391 27250 net.cpp:165] Memory required for data: 1882202272
I0617 16:55:29.916394 27250 layer_factory.hpp:77] Creating layer conv9_2
I0617 16:55:29.916404 27250 net.cpp:100] Creating Layer conv9_2
I0617 16:55:29.916406 27250 net.cpp:434] conv9_2 <- conv9_1
I0617 16:55:29.916411 27250 net.cpp:408] conv9_2 -> conv9_2
I0617 16:55:29.920117 27250 net.cpp:150] Setting up conv9_2
I0617 16:55:29.920189 27250 net.cpp:157] Top shape: 8 256 1 1 (2048)
I0617 16:55:29.920197 27250 net.cpp:165] Memory required for data: 1882210464
I0617 16:55:29.920212 27250 layer_factory.hpp:77] Creating layer conv9_2_relu
I0617 16:55:29.920233 27250 net.cpp:100] Creating Layer conv9_2_relu
I0617 16:55:29.920248 27250 net.cpp:434] conv9_2_relu <- conv9_2
I0617 16:55:29.920259 27250 net.cpp:395] conv9_2_relu -> conv9_2 (in-place)
I0617 16:55:29.920275 27250 net.cpp:150] Setting up conv9_2_relu
I0617 16:55:29.920284 27250 net.cpp:157] Top shape: 8 256 1 1 (2048)
I0617 16:55:29.920290 27250 net.cpp:165] Memory required for data: 1882218656
I0617 16:55:29.920297 27250 layer_factory.hpp:77] Creating layer conv9_2_conv9_2_relu_0_split
I0617 16:55:29.920325 27250 net.cpp:100] Creating Layer conv9_2_conv9_2_relu_0_split
I0617 16:55:29.920347 27250 net.cpp:434] conv9_2_conv9_2_relu_0_split <- conv9_2
I0617 16:55:29.920357 27250 net.cpp:408] conv9_2_conv9_2_relu_0_split -> conv9_2_conv9_2_relu_0_split_0
I0617 16:55:29.920370 27250 net.cpp:408] conv9_2_conv9_2_relu_0_split -> conv9_2_conv9_2_relu_0_split_1
I0617 16:55:29.920382 27250 net.cpp:408] conv9_2_conv9_2_relu_0_split -> conv9_2_conv9_2_relu_0_split_2
I0617 16:55:29.920478 27250 net.cpp:150] Setting up conv9_2_conv9_2_relu_0_split
I0617 16:55:29.920492 27250 net.cpp:157] Top shape: 8 256 1 1 (2048)
I0617 16:55:29.920501 27250 net.cpp:157] Top shape: 8 256 1 1 (2048)
I0617 16:55:29.920509 27250 net.cpp:157] Top shape: 8 256 1 1 (2048)
I0617 16:55:29.920516 27250 net.cpp:165] Memory required for data: 1882243232
I0617 16:55:29.920521 27250 layer_factory.hpp:77] Creating layer conv4_3_norm
I0617 16:55:29.920557 27250 net.cpp:100] Creating Layer conv4_3_norm
I0617 16:55:29.920568 27250 net.cpp:434] conv4_3_norm <- conv4_3_relu4_3_0_split_1
I0617 16:55:29.920584 27250 net.cpp:408] conv4_3_norm -> conv4_3_norm
I0617 16:55:29.920881 27250 net.cpp:150] Setting up conv4_3_norm
I0617 16:55:29.920905 27250 net.cpp:157] Top shape: 8 512 38 38 (5914624)
I0617 16:55:29.920908 27250 net.cpp:165] Memory required for data: 1905901728
I0617 16:55:29.920928 27250 layer_factory.hpp:77] Creating layer conv4_3_norm_conv4_3_norm_0_split
I0617 16:55:29.920938 27250 net.cpp:100] Creating Layer conv4_3_norm_conv4_3_norm_0_split
I0617 16:55:29.920975 27250 net.cpp:434] conv4_3_norm_conv4_3_norm_0_split <- conv4_3_norm
I0617 16:55:29.920989 27250 net.cpp:408] conv4_3_norm_conv4_3_norm_0_split -> conv4_3_norm_conv4_3_norm_0_split_0
I0617 16:55:29.921002 27250 net.cpp:408] conv4_3_norm_conv4_3_norm_0_split -> conv4_3_norm_conv4_3_norm_0_split_1
I0617 16:55:29.921012 27250 net.cpp:408] conv4_3_norm_conv4_3_norm_0_split -> conv4_3_norm_conv4_3_norm_0_split_2
I0617 16:55:29.921093 27250 net.cpp:150] Setting up conv4_3_norm_conv4_3_norm_0_split
I0617 16:55:29.921106 27250 net.cpp:157] Top shape: 8 512 38 38 (5914624)
I0617 16:55:29.921114 27250 net.cpp:157] Top shape: 8 512 38 38 (5914624)
I0617 16:55:29.921121 27250 net.cpp:157] Top shape: 8 512 38 38 (5914624)
I0617 16:55:29.921126 27250 net.cpp:165] Memory required for data: 1976877216
I0617 16:55:29.921133 27250 layer_factory.hpp:77] Creating layer conv4_3_norm_mbox_loc
I0617 16:55:29.921155 27250 net.cpp:100] Creating Layer conv4_3_norm_mbox_loc
I0617 16:55:29.921165 27250 net.cpp:434] conv4_3_norm_mbox_loc <- conv4_3_norm_conv4_3_norm_0_split_0
I0617 16:55:29.921177 27250 net.cpp:408] conv4_3_norm_mbox_loc -> conv4_3_norm_mbox_loc
I0617 16:55:29.922515 27250 net.cpp:150] Setting up conv4_3_norm_mbox_loc
I0617 16:55:29.922544 27250 net.cpp:157] Top shape: 8 16 38 38 (184832)
I0617 16:55:29.922550 27250 net.cpp:165] Memory required for data: 1977616544
I0617 16:55:29.922561 27250 layer_factory.hpp:77] Creating layer conv4_3_norm_mbox_loc_perm
I0617 16:55:29.922600 27250 net.cpp:100] Creating Layer conv4_3_norm_mbox_loc_perm
I0617 16:55:29.922608 27250 net.cpp:434] conv4_3_norm_mbox_loc_perm <- conv4_3_norm_mbox_loc
I0617 16:55:29.922619 27250 net.cpp:408] conv4_3_norm_mbox_loc_perm -> conv4_3_norm_mbox_loc_perm
I0617 16:55:29.922811 27250 net.cpp:150] Setting up conv4_3_norm_mbox_loc_perm
I0617 16:55:29.922827 27250 net.cpp:157] Top shape: 8 38 38 16 (184832)
I0617 16:55:29.922832 27250 net.cpp:165] Memory required for data: 1978355872
I0617 16:55:29.922839 27250 layer_factory.hpp:77] Creating layer conv4_3_norm_mbox_loc_flat
I0617 16:55:29.922853 27250 net.cpp:100] Creating Layer conv4_3_norm_mbox_loc_flat
I0617 16:55:29.922861 27250 net.cpp:434] conv4_3_norm_mbox_loc_flat <- conv4_3_norm_mbox_loc_perm
I0617 16:55:29.922874 27250 net.cpp:408] conv4_3_norm_mbox_loc_flat -> conv4_3_norm_mbox_loc_flat
I0617 16:55:29.922966 27250 net.cpp:150] Setting up conv4_3_norm_mbox_loc_flat
I0617 16:55:29.922987 27250 net.cpp:157] Top shape: 8 23104 (184832)
I0617 16:55:29.922996 27250 net.cpp:165] Memory required for data: 1979095200
I0617 16:55:29.923003 27250 layer_factory.hpp:77] Creating layer conv4_3_norm_mbox_conf
I0617 16:55:29.923045 27250 net.cpp:100] Creating Layer conv4_3_norm_mbox_conf
I0617 16:55:29.923055 27250 net.cpp:434] conv4_3_norm_mbox_conf <- conv4_3_norm_conv4_3_norm_0_split_1
I0617 16:55:29.923069 27250 net.cpp:408] conv4_3_norm_mbox_conf -> conv4_3_norm_mbox_conf
I0617 16:55:29.927049 27250 net.cpp:150] Setting up conv4_3_norm_mbox_conf
I0617 16:55:29.927068 27250 net.cpp:157] Top shape: 8 84 38 38 (970368)
I0617 16:55:29.927083 27250 net.cpp:165] Memory required for data: 1982976672
I0617 16:55:29.927089 27250 layer_factory.hpp:77] Creating layer conv4_3_norm_mbox_conf_perm
I0617 16:55:29.927098 27250 net.cpp:100] Creating Layer conv4_3_norm_mbox_conf_perm
I0617 16:55:29.927101 27250 net.cpp:434] conv4_3_norm_mbox_conf_perm <- conv4_3_norm_mbox_conf
I0617 16:55:29.927108 27250 net.cpp:408] conv4_3_norm_mbox_conf_perm -> conv4_3_norm_mbox_conf_perm
I0617 16:55:29.927192 27250 net.cpp:150] Setting up conv4_3_norm_mbox_conf_perm
I0617 16:55:29.927201 27250 net.cpp:157] Top shape: 8 38 38 84 (970368)
I0617 16:55:29.927203 27250 net.cpp:165] Memory required for data: 1986858144
I0617 16:55:29.927207 27250 layer_factory.hpp:77] Creating layer conv4_3_norm_mbox_conf_flat
I0617 16:55:29.927213 27250 net.cpp:100] Creating Layer conv4_3_norm_mbox_conf_flat
I0617 16:55:29.927217 27250 net.cpp:434] conv4_3_norm_mbox_conf_flat <- conv4_3_norm_mbox_conf_perm
I0617 16:55:29.927237 27250 net.cpp:408] conv4_3_norm_mbox_conf_flat -> conv4_3_norm_mbox_conf_flat
I0617 16:55:29.927263 27250 net.cpp:150] Setting up conv4_3_norm_mbox_conf_flat
I0617 16:55:29.927270 27250 net.cpp:157] Top shape: 8 121296 (970368)
I0617 16:55:29.927273 27250 net.cpp:165] Memory required for data: 1990739616
I0617 16:55:29.927276 27250 layer_factory.hpp:77] Creating layer conv4_3_norm_mbox_priorbox
I0617 16:55:29.927284 27250 net.cpp:100] Creating Layer conv4_3_norm_mbox_priorbox
I0617 16:55:29.927289 27250 net.cpp:434] conv4_3_norm_mbox_priorbox <- conv4_3_norm_conv4_3_norm_0_split_2
I0617 16:55:29.927294 27250 net.cpp:434] conv4_3_norm_mbox_priorbox <- data_data_0_split_1
I0617 16:55:29.927300 27250 net.cpp:408] conv4_3_norm_mbox_priorbox -> conv4_3_norm_mbox_priorbox
I0617 16:55:29.927335 27250 net.cpp:150] Setting up conv4_3_norm_mbox_priorbox
I0617 16:55:29.927342 27250 net.cpp:157] Top shape: 1 2 23104 (46208)
I0617 16:55:29.927345 27250 net.cpp:165] Memory required for data: 1990924448
I0617 16:55:29.927347 27250 layer_factory.hpp:77] Creating layer fc7_mbox_loc
I0617 16:55:29.927358 27250 net.cpp:100] Creating Layer fc7_mbox_loc
I0617 16:55:29.927362 27250 net.cpp:434] fc7_mbox_loc <- fc7_relu7_0_split_1
I0617 16:55:29.927369 27250 net.cpp:408] fc7_mbox_loc -> fc7_mbox_loc
I0617 16:55:29.929700 27250 net.cpp:150] Setting up fc7_mbox_loc
I0617 16:55:29.929745 27250 net.cpp:157] Top shape: 8 24 19 19 (69312)
I0617 16:55:29.929749 27250 net.cpp:165] Memory required for data: 1991201696
I0617 16:55:29.929756 27250 layer_factory.hpp:77] Creating layer fc7_mbox_loc_perm
I0617 16:55:29.929769 27250 net.cpp:100] Creating Layer fc7_mbox_loc_perm
I0617 16:55:29.929774 27250 net.cpp:434] fc7_mbox_loc_perm <- fc7_mbox_loc
I0617 16:55:29.929780 27250 net.cpp:408] fc7_mbox_loc_perm -> fc7_mbox_loc_perm
I0617 16:55:29.929870 27250 net.cpp:150] Setting up fc7_mbox_loc_perm
I0617 16:55:29.929878 27250 net.cpp:157] Top shape: 8 19 19 24 (69312)
I0617 16:55:29.929882 27250 net.cpp:165] Memory required for data: 1991478944
I0617 16:55:29.929885 27250 layer_factory.hpp:77] Creating layer fc7_mbox_loc_flat
I0617 16:55:29.929893 27250 net.cpp:100] Creating Layer fc7_mbox_loc_flat
I0617 16:55:29.929895 27250 net.cpp:434] fc7_mbox_loc_flat <- fc7_mbox_loc_perm
I0617 16:55:29.929903 27250 net.cpp:408] fc7_mbox_loc_flat -> fc7_mbox_loc_flat
I0617 16:55:29.929925 27250 net.cpp:150] Setting up fc7_mbox_loc_flat
I0617 16:55:29.929934 27250 net.cpp:157] Top shape: 8 8664 (69312)
I0617 16:55:29.929936 27250 net.cpp:165] Memory required for data: 1991756192
I0617 16:55:29.929939 27250 layer_factory.hpp:77] Creating layer fc7_mbox_conf
I0617 16:55:29.929956 27250 net.cpp:100] Creating Layer fc7_mbox_conf
I0617 16:55:29.929961 27250 net.cpp:434] fc7_mbox_conf <- fc7_relu7_0_split_2
I0617 16:55:29.929967 27250 net.cpp:408] fc7_mbox_conf -> fc7_mbox_conf
I0617 16:55:29.943377 27250 net.cpp:150] Setting up fc7_mbox_conf
I0617 16:55:29.943436 27250 net.cpp:157] Top shape: 8 126 19 19 (363888)
I0617 16:55:29.943441 27250 net.cpp:165] Memory required for data: 1993211744
I0617 16:55:29.943451 27250 layer_factory.hpp:77] Creating layer fc7_mbox_conf_perm
I0617 16:55:29.943467 27250 net.cpp:100] Creating Layer fc7_mbox_conf_perm
I0617 16:55:29.943475 27250 net.cpp:434] fc7_mbox_conf_perm <- fc7_mbox_conf
I0617 16:55:29.943490 27250 net.cpp:408] fc7_mbox_conf_perm -> fc7_mbox_conf_perm
I0617 16:55:29.943763 27250 net.cpp:150] Setting up fc7_mbox_conf_perm
I0617 16:55:29.943773 27250 net.cpp:157] Top shape: 8 19 19 126 (363888)
I0617 16:55:29.943778 27250 net.cpp:165] Memory required for data: 1994667296
I0617 16:55:29.943781 27250 layer_factory.hpp:77] Creating layer fc7_mbox_conf_flat
I0617 16:55:29.943789 27250 net.cpp:100] Creating Layer fc7_mbox_conf_flat
I0617 16:55:29.943794 27250 net.cpp:434] fc7_mbox_conf_flat <- fc7_mbox_conf_perm
I0617 16:55:29.943801 27250 net.cpp:408] fc7_mbox_conf_flat -> fc7_mbox_conf_flat
I0617 16:55:29.943826 27250 net.cpp:150] Setting up fc7_mbox_conf_flat
I0617 16:55:29.943833 27250 net.cpp:157] Top shape: 8 45486 (363888)
I0617 16:55:29.943861 27250 net.cpp:165] Memory required for data: 1996122848
I0617 16:55:29.943866 27250 layer_factory.hpp:77] Creating layer fc7_mbox_priorbox
I0617 16:55:29.943873 27250 net.cpp:100] Creating Layer fc7_mbox_priorbox
I0617 16:55:29.943878 27250 net.cpp:434] fc7_mbox_priorbox <- fc7_relu7_0_split_3
I0617 16:55:29.943884 27250 net.cpp:434] fc7_mbox_priorbox <- data_data_0_split_2
I0617 16:55:29.943889 27250 net.cpp:408] fc7_mbox_priorbox -> fc7_mbox_priorbox
I0617 16:55:29.943917 27250 net.cpp:150] Setting up fc7_mbox_priorbox
I0617 16:55:29.943924 27250 net.cpp:157] Top shape: 1 2 8664 (17328)
I0617 16:55:29.943928 27250 net.cpp:165] Memory required for data: 1996192160
I0617 16:55:29.943931 27250 layer_factory.hpp:77] Creating layer conv6_2_mbox_loc
I0617 16:55:29.943946 27250 net.cpp:100] Creating Layer conv6_2_mbox_loc
I0617 16:55:29.943951 27250 net.cpp:434] conv6_2_mbox_loc <- conv6_2_conv6_2_relu_0_split_1
I0617 16:55:29.943959 27250 net.cpp:408] conv6_2_mbox_loc -> conv6_2_mbox_loc
I0617 16:55:29.945689 27250 net.cpp:150] Setting up conv6_2_mbox_loc
I0617 16:55:29.945708 27250 net.cpp:157] Top shape: 8 24 10 10 (19200)
I0617 16:55:29.945721 27250 net.cpp:165] Memory required for data: 1996268960
I0617 16:55:29.945729 27250 layer_factory.hpp:77] Creating layer conv6_2_mbox_loc_perm
I0617 16:55:29.945739 27250 net.cpp:100] Creating Layer conv6_2_mbox_loc_perm
I0617 16:55:29.945744 27250 net.cpp:434] conv6_2_mbox_loc_perm <- conv6_2_mbox_loc
I0617 16:55:29.945749 27250 net.cpp:408] conv6_2_mbox_loc_perm -> conv6_2_mbox_loc_perm
I0617 16:55:29.945849 27250 net.cpp:150] Setting up conv6_2_mbox_loc_perm
I0617 16:55:29.945858 27250 net.cpp:157] Top shape: 8 10 10 24 (19200)
I0617 16:55:29.945860 27250 net.cpp:165] Memory required for data: 1996345760
I0617 16:55:29.945863 27250 layer_factory.hpp:77] Creating layer conv6_2_mbox_loc_flat
I0617 16:55:29.945870 27250 net.cpp:100] Creating Layer conv6_2_mbox_loc_flat
I0617 16:55:29.945874 27250 net.cpp:434] conv6_2_mbox_loc_flat <- conv6_2_mbox_loc_perm
I0617 16:55:29.945880 27250 net.cpp:408] conv6_2_mbox_loc_flat -> conv6_2_mbox_loc_flat
I0617 16:55:29.945899 27250 net.cpp:150] Setting up conv6_2_mbox_loc_flat
I0617 16:55:29.945919 27250 net.cpp:157] Top shape: 8 2400 (19200)
I0617 16:55:29.945921 27250 net.cpp:165] Memory required for data: 1996422560
I0617 16:55:29.945924 27250 layer_factory.hpp:77] Creating layer conv6_2_mbox_conf
I0617 16:55:29.945940 27250 net.cpp:100] Creating Layer conv6_2_mbox_conf
I0617 16:55:29.945945 27250 net.cpp:434] conv6_2_mbox_conf <- conv6_2_conv6_2_relu_0_split_2
I0617 16:55:29.945950 27250 net.cpp:408] conv6_2_mbox_conf -> conv6_2_mbox_conf
I0617 16:55:29.951243 27250 net.cpp:150] Setting up conv6_2_mbox_conf
I0617 16:55:29.951275 27250 net.cpp:157] Top shape: 8 126 10 10 (100800)
I0617 16:55:29.951290 27250 net.cpp:165] Memory required for data: 1996825760
I0617 16:55:29.951310 27250 layer_factory.hpp:77] Creating layer conv6_2_mbox_conf_perm
I0617 16:55:29.951324 27250 net.cpp:100] Creating Layer conv6_2_mbox_conf_perm
I0617 16:55:29.951330 27250 net.cpp:434] conv6_2_mbox_conf_perm <- conv6_2_mbox_conf
I0617 16:55:29.951344 27250 net.cpp:408] conv6_2_mbox_conf_perm -> conv6_2_mbox_conf_perm
I0617 16:55:29.951433 27250 net.cpp:150] Setting up conv6_2_mbox_conf_perm
I0617 16:55:29.951442 27250 net.cpp:157] Top shape: 8 10 10 126 (100800)
I0617 16:55:29.951444 27250 net.cpp:165] Memory required for data: 1997228960
I0617 16:55:29.951447 27250 layer_factory.hpp:77] Creating layer conv6_2_mbox_conf_flat
I0617 16:55:29.951454 27250 net.cpp:100] Creating Layer conv6_2_mbox_conf_flat
I0617 16:55:29.951458 27250 net.cpp:434] conv6_2_mbox_conf_flat <- conv6_2_mbox_conf_perm
I0617 16:55:29.951467 27250 net.cpp:408] conv6_2_mbox_conf_flat -> conv6_2_mbox_conf_flat
I0617 16:55:29.951490 27250 net.cpp:150] Setting up conv6_2_mbox_conf_flat
I0617 16:55:29.951498 27250 net.cpp:157] Top shape: 8 12600 (100800)
I0617 16:55:29.951501 27250 net.cpp:165] Memory required for data: 1997632160
I0617 16:55:29.951504 27250 layer_factory.hpp:77] Creating layer conv6_2_mbox_priorbox
I0617 16:55:29.951529 27250 net.cpp:100] Creating Layer conv6_2_mbox_priorbox
I0617 16:55:29.951535 27250 net.cpp:434] conv6_2_mbox_priorbox <- conv6_2_conv6_2_relu_0_split_3
I0617 16:55:29.951541 27250 net.cpp:434] conv6_2_mbox_priorbox <- data_data_0_split_3
I0617 16:55:29.951546 27250 net.cpp:408] conv6_2_mbox_priorbox -> conv6_2_mbox_priorbox
I0617 16:55:29.951891 27250 net.cpp:150] Setting up conv6_2_mbox_priorbox
I0617 16:55:29.951901 27250 net.cpp:157] Top shape: 1 2 2400 (4800)
I0617 16:55:29.951905 27250 net.cpp:165] Memory required for data: 1997651360
I0617 16:55:29.951908 27250 layer_factory.hpp:77] Creating layer conv7_2_mbox_loc
I0617 16:55:29.951922 27250 net.cpp:100] Creating Layer conv7_2_mbox_loc
I0617 16:55:29.951927 27250 net.cpp:434] conv7_2_mbox_loc <- conv7_2_conv7_2_relu_0_split_1
I0617 16:55:29.951936 27250 net.cpp:408] conv7_2_mbox_loc -> conv7_2_mbox_loc
I0617 16:55:29.953323 27250 net.cpp:150] Setting up conv7_2_mbox_loc
I0617 16:55:29.953348 27250 net.cpp:157] Top shape: 8 24 5 5 (4800)
I0617 16:55:29.953352 27250 net.cpp:165] Memory required for data: 1997670560
I0617 16:55:29.953359 27250 layer_factory.hpp:77] Creating layer conv7_2_mbox_loc_perm
I0617 16:55:29.953369 27250 net.cpp:100] Creating Layer conv7_2_mbox_loc_perm
I0617 16:55:29.953373 27250 net.cpp:434] conv7_2_mbox_loc_perm <- conv7_2_mbox_loc
I0617 16:55:29.953379 27250 net.cpp:408] conv7_2_mbox_loc_perm -> conv7_2_mbox_loc_perm
I0617 16:55:29.953464 27250 net.cpp:150] Setting up conv7_2_mbox_loc_perm
I0617 16:55:29.953472 27250 net.cpp:157] Top shape: 8 5 5 24 (4800)
I0617 16:55:29.953475 27250 net.cpp:165] Memory required for data: 1997689760
I0617 16:55:29.953478 27250 layer_factory.hpp:77] Creating layer conv7_2_mbox_loc_flat
I0617 16:55:29.953485 27250 net.cpp:100] Creating Layer conv7_2_mbox_loc_flat
I0617 16:55:29.953488 27250 net.cpp:434] conv7_2_mbox_loc_flat <- conv7_2_mbox_loc_perm
I0617 16:55:29.953493 27250 net.cpp:408] conv7_2_mbox_loc_flat -> conv7_2_mbox_loc_flat
I0617 16:55:29.953514 27250 net.cpp:150] Setting up conv7_2_mbox_loc_flat
I0617 16:55:29.953521 27250 net.cpp:157] Top shape: 8 600 (4800)
I0617 16:55:29.953523 27250 net.cpp:165] Memory required for data: 1997708960
I0617 16:55:29.953526 27250 layer_factory.hpp:77] Creating layer conv7_2_mbox_conf
I0617 16:55:29.953538 27250 net.cpp:100] Creating Layer conv7_2_mbox_conf
I0617 16:55:29.953543 27250 net.cpp:434] conv7_2_mbox_conf <- conv7_2_conv7_2_relu_0_split_2
I0617 16:55:29.953550 27250 net.cpp:408] conv7_2_mbox_conf -> conv7_2_mbox_conf
I0617 16:55:29.956488 27250 net.cpp:150] Setting up conv7_2_mbox_conf
I0617 16:55:29.956529 27250 net.cpp:157] Top shape: 8 126 5 5 (25200)
I0617 16:55:29.956533 27250 net.cpp:165] Memory required for data: 1997809760
I0617 16:55:29.956549 27250 layer_factory.hpp:77] Creating layer conv7_2_mbox_conf_perm
I0617 16:55:29.956564 27250 net.cpp:100] Creating Layer conv7_2_mbox_conf_perm
I0617 16:55:29.956578 27250 net.cpp:434] conv7_2_mbox_conf_perm <- conv7_2_mbox_conf
I0617 16:55:29.956586 27250 net.cpp:408] conv7_2_mbox_conf_perm -> conv7_2_mbox_conf_perm
I0617 16:55:29.956682 27250 net.cpp:150] Setting up conv7_2_mbox_conf_perm
I0617 16:55:29.956691 27250 net.cpp:157] Top shape: 8 5 5 126 (25200)
I0617 16:55:29.956693 27250 net.cpp:165] Memory required for data: 1997910560
I0617 16:55:29.956697 27250 layer_factory.hpp:77] Creating layer conv7_2_mbox_conf_flat
I0617 16:55:29.956706 27250 net.cpp:100] Creating Layer conv7_2_mbox_conf_flat
I0617 16:55:29.956709 27250 net.cpp:434] conv7_2_mbox_conf_flat <- conv7_2_mbox_conf_perm
I0617 16:55:29.956715 27250 net.cpp:408] conv7_2_mbox_conf_flat -> conv7_2_mbox_conf_flat
I0617 16:55:29.956735 27250 net.cpp:150] Setting up conv7_2_mbox_conf_flat
I0617 16:55:29.956742 27250 net.cpp:157] Top shape: 8 3150 (25200)
I0617 16:55:29.956744 27250 net.cpp:165] Memory required for data: 1998011360
I0617 16:55:29.956748 27250 layer_factory.hpp:77] Creating layer conv7_2_mbox_priorbox
I0617 16:55:29.956763 27250 net.cpp:100] Creating Layer conv7_2_mbox_priorbox
I0617 16:55:29.956784 27250 net.cpp:434] conv7_2_mbox_priorbox <- conv7_2_conv7_2_relu_0_split_3
I0617 16:55:29.956791 27250 net.cpp:434] conv7_2_mbox_priorbox <- data_data_0_split_4
I0617 16:55:29.956797 27250 net.cpp:408] conv7_2_mbox_priorbox -> conv7_2_mbox_priorbox
I0617 16:55:29.956827 27250 net.cpp:150] Setting up conv7_2_mbox_priorbox
I0617 16:55:29.956835 27250 net.cpp:157] Top shape: 1 2 600 (1200)
I0617 16:55:29.956837 27250 net.cpp:165] Memory required for data: 1998016160
I0617 16:55:29.956841 27250 layer_factory.hpp:77] Creating layer conv8_2_mbox_loc
I0617 16:55:29.956854 27250 net.cpp:100] Creating Layer conv8_2_mbox_loc
I0617 16:55:29.956859 27250 net.cpp:434] conv8_2_mbox_loc <- conv8_2_conv8_2_relu_0_split_1
I0617 16:55:29.956873 27250 net.cpp:408] conv8_2_mbox_loc -> conv8_2_mbox_loc
I0617 16:55:29.957330 27250 net.cpp:150] Setting up conv8_2_mbox_loc
I0617 16:55:29.957340 27250 net.cpp:157] Top shape: 8 16 3 3 (1152)
I0617 16:55:29.957342 27250 net.cpp:165] Memory required for data: 1998020768
I0617 16:55:29.957365 27250 layer_factory.hpp:77] Creating layer conv8_2_mbox_loc_perm
I0617 16:55:29.957371 27250 net.cpp:100] Creating Layer conv8_2_mbox_loc_perm
I0617 16:55:29.957376 27250 net.cpp:434] conv8_2_mbox_loc_perm <- conv8_2_mbox_loc
I0617 16:55:29.957383 27250 net.cpp:408] conv8_2_mbox_loc_perm -> conv8_2_mbox_loc_perm
I0617 16:55:29.957478 27250 net.cpp:150] Setting up conv8_2_mbox_loc_perm
I0617 16:55:29.957484 27250 net.cpp:157] Top shape: 8 3 3 16 (1152)
I0617 16:55:29.957487 27250 net.cpp:165] Memory required for data: 1998025376
I0617 16:55:29.957490 27250 layer_factory.hpp:77] Creating layer conv8_2_mbox_loc_flat
I0617 16:55:29.957499 27250 net.cpp:100] Creating Layer conv8_2_mbox_loc_flat
I0617 16:55:29.957504 27250 net.cpp:434] conv8_2_mbox_loc_flat <- conv8_2_mbox_loc_perm
I0617 16:55:29.957509 27250 net.cpp:408] conv8_2_mbox_loc_flat -> conv8_2_mbox_loc_flat
I0617 16:55:29.957535 27250 net.cpp:150] Setting up conv8_2_mbox_loc_flat
I0617 16:55:29.957541 27250 net.cpp:157] Top shape: 8 144 (1152)
I0617 16:55:29.957543 27250 net.cpp:165] Memory required for data: 1998029984
I0617 16:55:29.957546 27250 layer_factory.hpp:77] Creating layer conv8_2_mbox_conf
I0617 16:55:29.957556 27250 net.cpp:100] Creating Layer conv8_2_mbox_conf
I0617 16:55:29.957561 27250 net.cpp:434] conv8_2_mbox_conf <- conv8_2_conv8_2_relu_0_split_2
I0617 16:55:29.957568 27250 net.cpp:408] conv8_2_mbox_conf -> conv8_2_mbox_conf
I0617 16:55:29.960239 27250 net.cpp:150] Setting up conv8_2_mbox_conf
I0617 16:55:29.960281 27250 net.cpp:157] Top shape: 8 84 3 3 (6048)
I0617 16:55:29.960289 27250 net.cpp:165] Memory required for data: 1998054176
I0617 16:55:29.960297 27250 layer_factory.hpp:77] Creating layer conv8_2_mbox_conf_perm
I0617 16:55:29.960312 27250 net.cpp:100] Creating Layer conv8_2_mbox_conf_perm
I0617 16:55:29.960317 27250 net.cpp:434] conv8_2_mbox_conf_perm <- conv8_2_mbox_conf
I0617 16:55:29.960330 27250 net.cpp:408] conv8_2_mbox_conf_perm -> conv8_2_mbox_conf_perm
I0617 16:55:29.960420 27250 net.cpp:150] Setting up conv8_2_mbox_conf_perm
I0617 16:55:29.960428 27250 net.cpp:157] Top shape: 8 3 3 84 (6048)
I0617 16:55:29.960431 27250 net.cpp:165] Memory required for data: 1998078368
I0617 16:55:29.960434 27250 layer_factory.hpp:77] Creating layer conv8_2_mbox_conf_flat
I0617 16:55:29.960443 27250 net.cpp:100] Creating Layer conv8_2_mbox_conf_flat
I0617 16:55:29.960448 27250 net.cpp:434] conv8_2_mbox_conf_flat <- conv8_2_mbox_conf_perm
I0617 16:55:29.960453 27250 net.cpp:408] conv8_2_mbox_conf_flat -> conv8_2_mbox_conf_flat
I0617 16:55:29.960481 27250 net.cpp:150] Setting up conv8_2_mbox_conf_flat
I0617 16:55:29.960486 27250 net.cpp:157] Top shape: 8 756 (6048)
I0617 16:55:29.960489 27250 net.cpp:165] Memory required for data: 1998102560
I0617 16:55:29.960492 27250 layer_factory.hpp:77] Creating layer conv8_2_mbox_priorbox
I0617 16:55:29.960500 27250 net.cpp:100] Creating Layer conv8_2_mbox_priorbox
I0617 16:55:29.960505 27250 net.cpp:434] conv8_2_mbox_priorbox <- conv8_2_conv8_2_relu_0_split_3
I0617 16:55:29.960527 27250 net.cpp:434] conv8_2_mbox_priorbox <- data_data_0_split_5
I0617 16:55:29.960533 27250 net.cpp:408] conv8_2_mbox_priorbox -> conv8_2_mbox_priorbox
I0617 16:55:29.960561 27250 net.cpp:150] Setting up conv8_2_mbox_priorbox
I0617 16:55:29.960568 27250 net.cpp:157] Top shape: 1 2 144 (288)
I0617 16:55:29.960572 27250 net.cpp:165] Memory required for data: 1998103712
I0617 16:55:29.960574 27250 layer_factory.hpp:77] Creating layer conv9_2_mbox_loc
I0617 16:55:29.960587 27250 net.cpp:100] Creating Layer conv9_2_mbox_loc
I0617 16:55:29.960590 27250 net.cpp:434] conv9_2_mbox_loc <- conv9_2_conv9_2_relu_0_split_0
I0617 16:55:29.960597 27250 net.cpp:408] conv9_2_mbox_loc -> conv9_2_mbox_loc
I0617 16:55:29.961047 27250 net.cpp:150] Setting up conv9_2_mbox_loc
I0617 16:55:29.961055 27250 net.cpp:157] Top shape: 8 16 1 1 (128)
I0617 16:55:29.961058 27250 net.cpp:165] Memory required for data: 1998104224
I0617 16:55:29.961074 27250 layer_factory.hpp:77] Creating layer conv9_2_mbox_loc_perm
I0617 16:55:29.961081 27250 net.cpp:100] Creating Layer conv9_2_mbox_loc_perm
I0617 16:55:29.961086 27250 net.cpp:434] conv9_2_mbox_loc_perm <- conv9_2_mbox_loc
I0617 16:55:29.961091 27250 net.cpp:408] conv9_2_mbox_loc_perm -> conv9_2_mbox_loc_perm
I0617 16:55:29.961187 27250 net.cpp:150] Setting up conv9_2_mbox_loc_perm
I0617 16:55:29.961195 27250 net.cpp:157] Top shape: 8 1 1 16 (128)
I0617 16:55:29.961199 27250 net.cpp:165] Memory required for data: 1998104736
I0617 16:55:29.961201 27250 layer_factory.hpp:77] Creating layer conv9_2_mbox_loc_flat
I0617 16:55:29.961208 27250 net.cpp:100] Creating Layer conv9_2_mbox_loc_flat
I0617 16:55:29.961212 27250 net.cpp:434] conv9_2_mbox_loc_flat <- conv9_2_mbox_loc_perm
I0617 16:55:29.961217 27250 net.cpp:408] conv9_2_mbox_loc_flat -> conv9_2_mbox_loc_flat
I0617 16:55:29.961237 27250 net.cpp:150] Setting up conv9_2_mbox_loc_flat
I0617 16:55:29.961242 27250 net.cpp:157] Top shape: 8 16 (128)
I0617 16:55:29.961246 27250 net.cpp:165] Memory required for data: 1998105248
I0617 16:55:29.961248 27250 layer_factory.hpp:77] Creating layer conv9_2_mbox_conf
I0617 16:55:29.961257 27250 net.cpp:100] Creating Layer conv9_2_mbox_conf
I0617 16:55:29.961261 27250 net.cpp:434] conv9_2_mbox_conf <- conv9_2_conv9_2_relu_0_split_1
I0617 16:55:29.961269 27250 net.cpp:408] conv9_2_mbox_conf -> conv9_2_mbox_conf
I0617 16:55:29.964165 27250 net.cpp:150] Setting up conv9_2_mbox_conf
I0617 16:55:29.964201 27250 net.cpp:157] Top shape: 8 84 1 1 (672)
I0617 16:55:29.964205 27250 net.cpp:165] Memory required for data: 1998107936
I0617 16:55:29.964211 27250 layer_factory.hpp:77] Creating layer conv9_2_mbox_conf_perm
I0617 16:55:29.964221 27250 net.cpp:100] Creating Layer conv9_2_mbox_conf_perm
I0617 16:55:29.964226 27250 net.cpp:434] conv9_2_mbox_conf_perm <- conv9_2_mbox_conf
I0617 16:55:29.964236 27250 net.cpp:408] conv9_2_mbox_conf_perm -> conv9_2_mbox_conf_perm
I0617 16:55:29.964324 27250 net.cpp:150] Setting up conv9_2_mbox_conf_perm
I0617 16:55:29.964332 27250 net.cpp:157] Top shape: 8 1 1 84 (672)
I0617 16:55:29.964335 27250 net.cpp:165] Memory required for data: 1998110624
I0617 16:55:29.964339 27250 layer_factory.hpp:77] Creating layer conv9_2_mbox_conf_flat
I0617 16:55:29.964346 27250 net.cpp:100] Creating Layer conv9_2_mbox_conf_flat
I0617 16:55:29.964354 27250 net.cpp:434] conv9_2_mbox_conf_flat <- conv9_2_mbox_conf_perm
I0617 16:55:29.964359 27250 net.cpp:408] conv9_2_mbox_conf_flat -> conv9_2_mbox_conf_flat
I0617 16:55:29.964381 27250 net.cpp:150] Setting up conv9_2_mbox_conf_flat
I0617 16:55:29.964387 27250 net.cpp:157] Top shape: 8 84 (672)
I0617 16:55:29.964390 27250 net.cpp:165] Memory required for data: 1998113312
I0617 16:55:29.964393 27250 layer_factory.hpp:77] Creating layer conv9_2_mbox_priorbox
I0617 16:55:29.964401 27250 net.cpp:100] Creating Layer conv9_2_mbox_priorbox
I0617 16:55:29.964404 27250 net.cpp:434] conv9_2_mbox_priorbox <- conv9_2_conv9_2_relu_0_split_2
I0617 16:55:29.964408 27250 net.cpp:434] conv9_2_mbox_priorbox <- data_data_0_split_6
I0617 16:55:29.964416 27250 net.cpp:408] conv9_2_mbox_priorbox -> conv9_2_mbox_priorbox
I0617 16:55:29.964464 27250 net.cpp:150] Setting up conv9_2_mbox_priorbox
I0617 16:55:29.964473 27250 net.cpp:157] Top shape: 1 2 16 (32)
I0617 16:55:29.964480 27250 net.cpp:165] Memory required for data: 1998113440
I0617 16:55:29.964485 27250 layer_factory.hpp:77] Creating layer mbox_loc
I0617 16:55:29.964495 27250 net.cpp:100] Creating Layer mbox_loc
I0617 16:55:29.964504 27250 net.cpp:434] mbox_loc <- conv4_3_norm_mbox_loc_flat
I0617 16:55:29.964512 27250 net.cpp:434] mbox_loc <- fc7_mbox_loc_flat
I0617 16:55:29.964524 27250 net.cpp:434] mbox_loc <- conv6_2_mbox_loc_flat
I0617 16:55:29.964530 27250 net.cpp:434] mbox_loc <- conv7_2_mbox_loc_flat
I0617 16:55:29.964536 27250 net.cpp:434] mbox_loc <- conv8_2_mbox_loc_flat
I0617 16:55:29.964542 27250 net.cpp:434] mbox_loc <- conv9_2_mbox_loc_flat
I0617 16:55:29.964552 27250 net.cpp:408] mbox_loc -> mbox_loc
I0617 16:55:29.964583 27250 net.cpp:150] Setting up mbox_loc
I0617 16:55:29.964588 27250 net.cpp:157] Top shape: 8 34928 (279424)
I0617 16:55:29.964591 27250 net.cpp:165] Memory required for data: 1999231136
I0617 16:55:29.964594 27250 layer_factory.hpp:77] Creating layer mbox_conf
I0617 16:55:29.964602 27250 net.cpp:100] Creating Layer mbox_conf
I0617 16:55:29.964607 27250 net.cpp:434] mbox_conf <- conv4_3_norm_mbox_conf_flat
I0617 16:55:29.964612 27250 net.cpp:434] mbox_conf <- fc7_mbox_conf_flat
I0617 16:55:29.964615 27250 net.cpp:434] mbox_conf <- conv6_2_mbox_conf_flat
I0617 16:55:29.964619 27250 net.cpp:434] mbox_conf <- conv7_2_mbox_conf_flat
I0617 16:55:29.964623 27250 net.cpp:434] mbox_conf <- conv8_2_mbox_conf_flat
I0617 16:55:29.964627 27250 net.cpp:434] mbox_conf <- conv9_2_mbox_conf_flat
I0617 16:55:29.964632 27250 net.cpp:408] mbox_conf -> mbox_conf
I0617 16:55:29.964650 27250 net.cpp:150] Setting up mbox_conf
I0617 16:55:29.964655 27250 net.cpp:157] Top shape: 8 183372 (1466976)
I0617 16:55:29.964658 27250 net.cpp:165] Memory required for data: 2005099040
I0617 16:55:29.964661 27250 layer_factory.hpp:77] Creating layer mbox_priorbox
I0617 16:55:29.964666 27250 net.cpp:100] Creating Layer mbox_priorbox
I0617 16:55:29.964671 27250 net.cpp:434] mbox_priorbox <- conv4_3_norm_mbox_priorbox
I0617 16:55:29.964675 27250 net.cpp:434] mbox_priorbox <- fc7_mbox_priorbox
I0617 16:55:29.964679 27250 net.cpp:434] mbox_priorbox <- conv6_2_mbox_priorbox
I0617 16:55:29.964689 27250 net.cpp:434] mbox_priorbox <- conv7_2_mbox_priorbox
I0617 16:55:29.964692 27250 net.cpp:434] mbox_priorbox <- conv8_2_mbox_priorbox
I0617 16:55:29.964695 27250 net.cpp:434] mbox_priorbox <- conv9_2_mbox_priorbox
I0617 16:55:29.964701 27250 net.cpp:408] mbox_priorbox -> mbox_priorbox
I0617 16:55:29.964720 27250 net.cpp:150] Setting up mbox_priorbox
I0617 16:55:29.964725 27250 net.cpp:157] Top shape: 1 2 34928 (69856)
I0617 16:55:29.964726 27250 net.cpp:165] Memory required for data: 2005378464
I0617 16:55:29.964730 27250 layer_factory.hpp:77] Creating layer mbox_loss
I0617 16:55:29.964743 27250 net.cpp:100] Creating Layer mbox_loss
I0617 16:55:29.964746 27250 net.cpp:434] mbox_loss <- mbox_loc
I0617 16:55:29.964751 27250 net.cpp:434] mbox_loss <- mbox_conf
I0617 16:55:29.964753 27250 net.cpp:434] mbox_loss <- mbox_priorbox
…
  phase: TEST
}
layer {
  name: "data"
  type: "AnnotatedData"
  top: "data"
  top: "label"
  include {
    phase: TEST
  }
  transform_param {
    mean_value: 104
    mean_value: 117
    mean_value: 123
    resize_param {
      prob: 1
      resize_mode: WARP
      height: 300
      width: 300
      interp_mode: LINEAR
    }
  }
  data_param {
    source: "/home/lsj/VOCdevkit/VOC0712/lmdb/VOC0712_test_lmdb"
    batch_size: 8
    backend: LMDB
  }
  annotated_data_param {
    batch_sampler {
    }
    label_map_file: "data/VOC0712/labelmap_voc.prototxt"
  }
}
layer {
  name: "conv1_1"
  type: "Convolution"
  bottom: "data"
  top: "conv1_1"
  param {
    lr_mult: 1
    decay_mult: 1
  }
  param {
    lr_mult: 2
    decay_mult: 0
  }
  convolution_param {
    num_output: 64
    pad: 1
    kernel_size: 3
    weight_filler {
      type: "xavier"
    }
    bias_filler {
      type: "constant"
      value: 0
    }
  }
}
layer {
  name: "relu1_1"
  type: "ReLU"
  bottom: "conv1_1"
  top: "conv1_1"
}
layer {
  name: "conv1_2"
  type: "Convolution"
  bottom: "conv1_1"
  top: "conv1_2"
  param {
    lr_mult: 1
    decay_mult: 1
  }
  param {
    lr_mult: 2
    decay_mult: 0
  }
  convolution_param {
    num_output: 64
    pad: 1
    kernel_size: 3
    weight_filler {
      type: "xavier"
    }
    bias_filler {
      type: "constant"
      value: 0
    }
  }
}
layer {
  name: "relu1_2"
  type: "ReLU"
  bottom: "conv1_2"
  top: "conv1_2"
}
layer {
  name: "pool1"
  type: "Pooling"
  bottom: "conv1_2"
  top: "pool1"
  pooling_param {
    pool: MAX
    kernel_size: 2
    stride: 2
  }
}
layer {
  name: "conv2_1"
  type: "Convolution"
  bottom: "pool1"
  top: "conv2_1"
  param {
    lr_mult: 1
    decay_mult: 1
  }
  param {
    lr_mult: 2
    decay_mult: 0
  }
  convolution_param {
    num_output: 128
    pad: 1
    kernel_size: 3
    weight_filler {
      type: "xavier"
    }
    bias_filler {
      type: "constant"
      value: 0
    }
  }
}
layer {
  name: "relu2_1"
  type: "ReLU"
  bottom: "conv2_1"
  top: "conv2_1"
}
layer {
  name: "conv2_2"
  type: "Convolution"
  bottom: "conv2_1"
  top: "conv2_2"
  param {
    lr_mult: 1
    decay_mult: 1
  }
  param {
    lr_mult: 2
    decay_mult: 0
  }
  convolution_param {
    num_output: 128
    pad: 1
    kernel_size: 3
    weight_filler {
      type: "xavier"
    }
    bias_filler {
      type: "constant"
      value: 0
    }
  }
}
layer {
  name: "relu2_2"
  type: "ReLU"
  bottom: "conv2_2"
  top: "conv2_2"
}
layer {
  name: "pool2"
  type: "Pooling"
  bottom: "conv2_2"
  top: "pool2"
  pooling_param {
    pool: MAX
    kernel_size: 2
    stride: 2
  }
}
layer {
  name: "conv3_1"
  type: "Convolution"
  bottom: "pool2"
  top: "conv3_1"
  param {
    lr_mult: 1
    decay_mult: 1
  }
  param {
    lr_mult: 2
    decay_mult: 0
  }
  convolution_param {
    num_output: 256
    pad: 1
    kernel_size: 3
    weight_filler {
      type: "xavier"
    }
    bias_filler {
      type: "constant"
      value: 0
    }
  }
}
layer {
  name: "relu3_1"
  type: "ReLU"
  bottom: "conv3_1"
  top: "conv3_1"
}
layer {
  name: "conv3_2"
  type: "Convolution"
  bottom: "conv3_1"
  top: "conv3_2"
  param {
    lr_mult: 1
    decay_mult: 1
  }
  param {
    lr_mult: 2
    decay_mult: 0
  }
  convolution_param {
    num_output: 256
    pad: 1
    kernel_size: 3
    weight_filler {
      type: "xavier"
    }
    bias_filler {
      type: "constant"
      value: 0
    }
  }
}
layer {
  name: "relu3_2"
  type: "ReLU"
  bottom: "conv3_2"
  top: "conv3_2"
}
layer {
  name: "conv3_3"
  type: "Convolution"
  bottom: "conv3_2"
  top: "conv3_3"
  param {
    lr_mult: 1
    decay_mult: 1
  }
  param {
    lr_mult: 2
    decay_mult: 0
  }
  convolution_param {
    num_output: 256
    pad: 1
    kernel_size: 3
    weight_filler {
      type: "xavier"
    }
    bias_filler {
      type: "constant"
      value: 0
    }
  }
}
layer {
  name: "relu3_3"
  type: "ReLU"
  bottom: "conv3_3"
  top: "conv3_3"
}
layer {
  name: "pool3"
  type: "Pooling"
  bottom: "conv3_3"
  top: "pool3"
  pooling_param {
    pool: MAX
    kernel_size: 2
    stride: 2
  }
}
layer {
  name: "conv4_1"
  type: "Convolution"
  bottom: "pool3"
  top: "conv4_1"
  param {
    lr_mult: 1
    decay_mult: 1
  }
  param {
    lr_mult: 2
    decay_mult: 0
  }
  convolution_param {
    num_output: 512
    pad: 1
    kernel_size: 3
    weight_filler {
      type: "xavier"
    }
    bias_filler {
      type: "constant"
      value: 0
    }
  }
}
layer {
  name: "relu4_1"
  type: "ReLU"
  bottom: "conv4_1"
  top: "conv4_1"
}
layer {
  name: "conv4_2"
  type: "Convolution"
  bottom: "conv4_1"
  top: "conv4_2"
  param {
    lr_mult: 1
    decay_mult: 1
  }
  param {
    lr_mult: 2
    decay_mult: 0
  }
  convolution_param {
    num_output: 512
    pad: 1
    kernel_size: 3
    weight_filler {
      type: "xavier"
    }
    bias_filler {
      type: "constant"
      value: 0
    }
  }
}
layer {
  name: "relu4_2"
  type: "ReLU"
  bottom: "conv4_2"
  top: "conv4_2"
}
layer {
  name: "conv4_3"
  type: "Convolution"
  bottom: "conv4_2"
  top: "conv4_3"
  param {
    lr_mult: 1
    decay_mult: 1
  }
  param {
    lr_mult: 2
    decay_mult: 0
  }
  convolution_param {
    num_output: 512
    pad: 1
    kernel_size: 3
    weight_filler {
      type: "xavier"
    }
    bias_filler {
      type: "constant"
      value: 0
    }
  }
}
layer {
  name: "relu4_3"
  type: "ReLU"
  bottom: "conv4_3"
  top: "conv4_3"
}
layer {
  name: "pool4"
  type: "Pooling"
  bottom: "conv4_3"
  top: "pool4"
  pooling_param {
    pool: MAX
    kernel_size: 2
    stride: 2
  }
}
layer {
  name: "conv5_1"
  type: "Convolution"
  bottom: "pool4"
  top: "conv5_1"
  param {
    lr_mult: 1
    decay_mult: 1
  }
  param {
    lr_mult: 2
    decay_mult: 0
  }
  convolution_param {
    num_output: 512
    pad: 1
    kernel_size: 3
    weight_filler {
      type: "xavier"
    }
    bias_filler {
      type: "constant"
      value: 0
    }
    dilation: 1
  }
}
layer {
  name: "relu5_1"
  type: "ReLU"
  bottom: "conv5_1"
  top: "conv5_1"
}
layer {
  name: "conv5_2"
  type: "Convolution"
  bottom: "conv5_1"
  top: "conv5_2"
  param {
    lr_mult: 1
    decay_mult: 1
  }
  param {
    lr_mult: 2
    decay_mult: 0
  }
  convolution_param {
    num_output: 512
    pad: 1
    kernel_size: 3
    weight_filler {
      type: "xavier"
    }
    bias_filler {
      type: "constant"
      value: 0
    }
    dilation: 1
  }
}
layer {
  name: "relu5_2"
  type: "ReLU"
  bottom: "conv5_2"
  top: "conv5_2"
}
layer {
  name: "conv5_3"
  type: "Convolution"
  bottom: "conv5_2"
  top: "conv5_3"
  param {
    lr_mult: 1
    decay_mult: 1
  }
  param {
    lr_mult: 2
    decay_mult: 0
  }
  convolution_param {
    num_output: 512
    pad: 1
    kernel_size: 3
    weight_filler {
      type: "xavier"
    }
    bias_filler {
      type: "constant"
      value: 0
    }
    dilation: 1
  }
}
layer {
  name: "relu5_3"
  type: "ReLU"
  bottom: "conv5_3"
  top: "conv5_3"
}
layer {
  name: "pool5"
  type: "Pooling"
  bottom: "conv5_3"
  top: "pool5"
  pooling_param {
    pool: MAX
    kernel_size: 3
    stride: 1
    pad: 1
  }
}
layer {
  name: "fc6"
  type: "Convolution"
  bottom: "pool5"
  top: "fc6"
  param {
    lr_mult: 1
    decay_mult: 1
  }
  param {
    lr_mult: 2
    decay_mult: 0
  }
  convolution_param {
    num_output: 1024
    pad: 6
    kernel_size: 3
    weight_filler {
      type: "xavier"
    }
    bias_filler {
      type: "constant"
      value: 0
    }
    dilation: 6
  }
}
layer {
  name: "relu6"
  type: "ReLU"
  bottom: "fc6"
  top: "fc6"
}
layer {
  name: "fc7"
  type: "Convolution"
  bottom: "fc6"
  top: "fc7"
  param {
    lr_mult: 1
    decay_mult: 1
  }
  param {
    lr_mult: 2
    decay_mult: 0
  }
  convolution_param {
    num_output: 1024
    kernel_size: 1
    weight_filler {
      type: "xavier"
    }
    bias_filler {
      type: "constant"
      value: 0
    }
  }
}
layer {
  name: "relu7"
  type: "ReLU"
  bottom: "fc7"
  top: "fc7"
}
layer {
  name: "conv6_1"
  type: "Convolution"
  bottom: "fc7"
  top: "conv6_1"
  param {
    lr_mult: 1
    decay_mult: 1
  }
  param {
    lr_mult: 2
    decay_mult: 0
  }
  convolution_param {
    num_output: 256
    pad: 0
    kernel_size: 1
    stride: 1
    weight_filler {
      type: "xavier"
    }
    bias_filler {
      type: "constant"
      value: 0
    }
  }
}
layer {
  name: "conv6_1_relu"
  type: "ReLU"
  bottom: "conv6_1"
  top: "conv6_1"
}
layer {
  name: "conv6_2"
  type: "Convolution"
  bottom: "conv6_1"
  top: "conv6_2"
  param {
    lr_mult: 1
    decay_mult: 1
  }
  param {
    lr_mult: 2
    decay_mult: 0
  }
  convolution_param {
    num_output: 512
    pad: 1
    kernel_size: 3
    stride: 2
    weight_filler {
      type: "xavier"
    }
    bias_filler {
      type: "constant"
      value: 0
    }
  }
}
layer {
  name: "conv6_2_relu"
  type: "ReLU"
  bottom: "conv6_2"
  top: "conv6_2"
}
layer {
  name: "conv7_1"
  type: "Convolution"
  bottom: "conv6_2"
  top: "conv7_1"
  param {
    lr_mult: 1
    decay_mult: 1
  }
  param {
    lr_mult: 2
    decay_mult: 0
  }
  convolution_param {
    num_output: 128
    pad: 0
    kernel_size: 1
    stride: 1
    weight_filler {
      type: "xavier"
    }
    bias_filler {
      type: "constant"
      value: 0
    }
  }
}
layer {
  name: "conv7_1_relu"
  type: "ReLU"
  bottom: "conv7_1"
  top: "conv7_1"
}
layer {
  name: "conv7_2"
  type: "Convolution"
  bottom: "conv7_1"
  top: "conv7_2"
  param {
    lr_mult: 1
    decay_mult: 1
  }
  param {
    lr_mult: 2
    decay_mult: 0
  }
  convolution_param {
    num_output: 256
    pad: 1
    kernel_size: 3
    stride: 2
    weight_filler {
      type: "xavier"
    }
    bias_filler {
      type: "constant"
      value: 0
    }
  }
}
layer {
  name: "conv7_2_relu"
  type: "ReLU"
  bottom: "conv7_2"
  top: "conv7_2"
}
layer {
  name: "conv8_1"
  type: "Convolution"
  bottom: "conv7_2"
  top: "conv8_1"
  param {
    lr_mult: 1
    decay_mult: 1
  }
  param {
    lr_mult: 2
    decay_mult: 0
  }
  convolution_param {
    num_output: 128
    pad: 0
    kernel_size: 1
    stride: 1
    weight_filler {
      type: "xavier"
    }
    bias_filler {
      type: "constant"
      value: 0
    }
  }
}
layer {
  name: "conv8_1_relu"
  type: "ReLU"
  bottom: "conv8_1"
  top: "conv8_1"
}
layer {
  name: "conv8_2"
  type: "Convolution"
  bottom: "conv8_1"
  top: "conv8_2"
  param {
    lr_mult: 1
    decay_mult: 1
  }
  param {
    lr_mult: 2
    decay_mult: 0
  }
  convolution_param {
    num_output: 256
    pad: 0
    kernel_size: 3
    stride: 1
    weight_filler {
      type: "xavier"
    }
    bias_filler {
      type: "constant"
      value: 0
    }
  }
}
layer {
  name: "conv8_2_relu"
  type: "ReLU"
  bottom: "conv8_2"
  top: "conv8_2"
}
layer {
  name: "conv9_1"
  type: "Convolution"
  bottom: "conv8_2"
  top: "conv9_1"
  param {
    lr_mult: 1
    decay_mult: 1
  }
  param {
    lr_mult: 2
    decay_mult: 0
  }
  convolution_param {
    num_output: 128
    pad: 0
    kernel_size: 1
    stride: 1
    weight_filler {
      type: "xavier"
    }
    bias_filler {
      type: "constant"
      value: 0
    }
  }
}
layer {
  name: "conv9_1_relu"
  type: "ReLU"
  bottom: "conv9_1"
  top: "conv9_1"
}
layer {
  name: "conv9_2"
  type: "Convolution"
  bottom: "conv9_1"
  top: "conv9_2"
  param {
    lr_mult: 1
    decay_mult: 1
  }
  param {
    lr_mult: 2
    decay_mult: 0
  }
  convolution_param {
    num_output: 256
    pad: 0
    kernel_size: 3
    stride: 1
    weight_filler {
      type: "xavier"
    }
    bias_filler {
      type: "constant"
      value: 0
    }
  }
}
layer {
  name: "conv9_2_relu"
  type: "ReLU"
  bottom: "conv9_2"
  top: "conv9_2"
}
layer {
  name: "conv4_3_norm"
  type: "Normalize"
  bottom: "conv4_3"
  top: "conv4_3_norm"
  norm_param {
    across_spatial: false
    scale_filler {
      type: "constant"
      value: 20
    }
    channel_shared: false
  }
}
layer {
  name: "conv4_3_norm_mbox_loc"
  type: "Convolution"
  bottom: "conv4_3_norm"
  top: "conv4_3_norm_mbox_loc"
  param {
    lr_mult: 1
    decay_mult: 1
  }
  param {
    lr_mult: 2
    decay_mult: 0
  }
  convolution_param {
    num_output: 16
    pad: 1
    kernel_size: 3
    stride: 1
    weight_filler {
      type: "xavier"
    }
    bias_filler {
      type: "constant"
      value: 0
    }
  }
}
layer {
  name: "conv4_3_norm_mbox_loc_perm"
  type: "Permute"
  bottom: "conv4_3_norm_mbox_loc"
  top: "conv4_3_norm_mbox_loc_perm"
  permute_param {
    order: 0
    order: 2
    order: 3
    order: 1
  }
}
layer {
  name: "conv4_3_norm_mbox_loc_flat"
  type: "Flatten"
  bottom: "conv4_3_norm_mbox_loc_perm"
  top: "conv4_3_norm_mbox_loc_flat"
  flatten_param {
    axis: 1
  }
}
layer {
  name: "conv4_3_norm_mbox_conf"
  type: "Convolution"
  bottom: "conv4_3_norm"
  top: "conv4_3_norm_mbox_conf"
  param {
    lr_mult: 1
    decay_mult: 1
  }
  param {
    lr_mult: 2
    decay_mult: 0
  }
  convolution_param {
    num_output: 84
    pad: 1
    kernel_size: 3
    stride: 1
    weight_filler {
      type: "xavier"
    }
    bias_filler {
      type: "constant"
      value: 0
    }
  }
}
layer {
  name: "conv4_3_norm_mbox_conf_perm"
  type: "Permute"
  bottom: "conv4_3_norm_mbox_conf"
  top: "conv4_3_norm_mbox_conf_perm"
  permute_param {
    order: 0
    order: 2
    order: 3
    order: 1
  }
}
layer {
  name: "conv4_3_norm_mbox_conf_flat"
  type: "Flatten"
  bottom: "conv4_3_norm_mbox_conf_perm"
  top: "conv4_3_norm_mbox_conf_flat"
  flatten_param {
    axis: 1
  }
}
layer {
  name: "conv4_3_norm_mbox_priorbox"
  type: "PriorBox"
  bottom: "conv4_3_norm"
  bottom: "data"
  top: "conv4_3_norm_mbox_priorbox"
  prior_box_param {
    min_size: 30
    max_size: 60
    aspect_ratio: 2
    flip: true
    clip: false
    variance: 0.1
    variance: 0.1
    variance: 0.2
    variance: 0.2
    step: 8
    offset: 0.5
  }
}
layer {
  name: "fc7_mbox_loc"
  type: "Convolution"
  bottom: "fc7"
  top: "fc7_mbox_loc"
  param {
    lr_mult: 1
    decay_mult: 1
  }
  param {
    lr_mult: 2
    decay_mult: 0
  }
  convolution_param {
    num_output: 24
    pad: 1
    kernel_size: 3
    stride: 1
    weight_filler {
      type: "xavier"
    }
    bias_filler {
      type: "constant"
      value: 0
    }
  }
}
layer {
  name: "fc7_mbox_loc_perm"
  type: "Permute"
  bottom: "fc7_mbox_loc"
  top: "fc7_mbox_loc_perm"
  permute_param {
    order: 0
    order: 2
    order: 3
    order: 1
  }
}
layer {
  name: "fc7_mbox_loc_flat"
  type: "Flatten"
  bottom: "fc7_mbox_loc_perm"
  top: "fc7_mbox_loc_flat"
  flatten_param {
    axis: 1
  }
}
layer {
  name: "fc7_mbox_conf"
  type: "Convolution"
  bottom: "fc7"
  top: "fc7_mbox_conf"
  param {
    lr_mult: 1
    decay_mult: 1
  }
  param {
    lr_mult: 2
    decay_mult: 0
  }
  convolution_param {
    num_output: 126
    pad: 1
    kernel_size: 3
    stride: 1
    weight_filler {
      type: "xavier"
    }
    bias_filler {
      type: "constant"
      value: 0
    }
  }
}
layer {
  name: "fc7_mbox_conf_perm"
  type: "Permute"
  bottom: "fc7_mbox_conf"
  top: "fc7_mbox_conf_perm"
  permute_param {
    order: 0
    order: 2
    order: 3
    order: 1
  }
}
layer {
  name: "fc7_mbox_conf_flat"
  type: "Flatten"
  bottom: "fc7_mbox_conf_perm"
  top: "fc7_mbox_conf_flat"
  flatten_param {
    axis: 1
  }
}
layer {
  name: "fc7_mbox_priorbox"
  type: "PriorBox"
  bottom: "fc7"
  bottom: "data"
  top: "fc7_mbox_priorbox"
  prior_box_param {
    min_size: 60
    max_size: 111
    aspect_ratio: 2
    aspect_ratio: 3
    flip: true
    clip: false
    variance: 0.1
    variance: 0.1
    variance: 0.2
    variance: 0.2
    step: 16
    offset: 0.5
  }
}
layer {
  name: "conv6_2_mbox_loc"
  type: "Convolution"
  bottom: "conv6_2"
  top: "conv6_2_mbox_loc"
  param {
    lr_mult: 1
    decay_mult: 1
  }
  param {
    lr_mult: 2
    decay_mult: 0
  }
  convolution_param {
    num_output: 24
    pad: 1
    kernel_size: 3
    stride: 1
    weight_filler {
      type: "xavier"
    }
    bias_filler {
      type: "constant"
      value: 0
    }
  }
}
layer {
  name: "conv6_2_mbox_loc_perm"
  type: "Permute"
  bottom: "conv6_2_mbox_loc"
  top: "conv6_2_mbox_loc_perm"
  permute_param {
    order: 0
    order: 2
    order: 3
    order: 1
  }
}
layer {
  name: "conv6_2_mbox_loc_flat"
  type: "Flatten"
  bottom: "conv6_2_mbox_loc_perm"
  top: "conv6_2_mbox_loc_flat"
  flatten_param {
    axis: 1
  }
}
layer {
  name: "conv6_2_mbox_conf"
  type: "Convolution"
  bottom: "conv6_2"
  top: "conv6_2_mbox_conf"
  param {
    lr_mult: 1
    decay_mult: 1
  }
  param {
    lr_mult: 2
    decay_mult: 0
  }
  convolution_param {
    num_output: 126
    pad: 1
    kernel_size: 3
    stride: 1
    weight_filler {
      type: "xavier"
    }
    bias_filler {
      type: "constant"
      value: 0
    }
  }
}
layer {
  name: "conv6_2_mbox_conf_perm"
  type: "Permute"
  bottom: "conv6_2_mbox_conf"
  top: "conv6_2_mbox_conf_perm"
  permute_param {
    order: 0
    order: 2
    order: 3
    order: 1
  }
}
layer {
  name: "conv6_2_mbox_conf_flat"
  type: "Flatten"
  bottom: "conv6_2_mbox_conf_perm"
  top: "conv6_2_mbox_conf_flat"
  flatten_param {
    axis: 1
  }
}
layer {
  name: "conv6_2_mbox_priorbox"
  type: "PriorBox"
  bottom: "conv6_2"
  bottom: "data"
  top: "conv6_2_mbox_priorbox"
  prior_box_param {
    min_size: 111
    max_size: 162
    aspect_ratio: 2
    aspect_ratio: 3
    flip: true
    clip: false
    variance: 0.1
    variance: 0.1
    variance: 0.2
    variance: 0.2
    step: 32
    offset: 0.5
  }
}
layer {
  name: "conv7_2_mbox_loc"
  type: "Convolution"
  bottom: "conv7_2"
  top: "conv7_2_mbox_loc"
  param {
    lr_mult: 1
    decay_mult: 1
  }
  param {
    lr_mult: 2
    decay_mult: 0
  }
  convolution_param {
    num_output: 24
    pad: 1
    kernel_size: 3
    stride: 1
    weight_filler {
      type: "xavier"
    }
    bias_filler {
      type: "constant"
      value: 0
    }
  }
}
layer {
  name: "conv7_2_mbox_loc_perm"
  type: "Permute"
  bottom: "conv7_2_mbox_loc"
  top: "conv7_2_mbox_loc_perm"
  permute_param {
    order: 0
    order: 2
    order: 3
    order: 1
  }
}
layer {
  name: "conv7_2_mbox_loc_flat"
  type: "Flatten"
  bottom: "conv7_2_mbox_loc_perm"
  top: "conv7_2_mbox_loc_flat"
  flatten_param {
    axis: 1
  }
}
layer {
  name: "conv7_2_mbox_conf"
  type: "Convolution"
  bottom: "conv7_2"
  top: "conv7_2_mbox_conf"
  param {
    lr_mult: 1
    decay_mult: 1
  }
  param {
    lr_mult: 2
    decay_mult: 0
  }
  convolution_param {
    num_output: 126
    pad: 1
    kernel_size: 3
    stride: 1
    weight_filler {
      type: "xavier"
    }
    bias_filler {
      type: "constant"
      value: 0
    }
  }
}
layer {
  name: "conv7_2_mbox_conf_perm"
  type: "Permute"
  bottom: "conv7_2_mbox_conf"
  top: "conv7_2_mbox_conf_perm"
  permute_param {
    order: 0
    order: 2
    order: 3
    order: 1
  }
}
layer {
  name: "conv7_2_mbox_conf_flat"
  type: "Flatten"
  bottom: "conv7_2_mbox_conf_perm"
  top: "conv7_2_mbox_conf_flat"
  flatten_param {
    axis: 1
  }
}
layer {
  name: "conv7_2_mbox_priorbox"
  type: "PriorBox"
  bottom: "conv7_2"
  bottom: "data"
  top: "conv7_2_mbox_priorbox"
  prior_box_param {
    min_size: 162
    max_size: 213
    aspect_ratio: 2
    aspect_ratio: 3
    flip: true
    clip: false
    variance: 0.1
    variance: 0.1
    variance: 0.2
    variance: 0.2
    step: 64
    offset: 0.5
  }
}
layer {
  name: "conv8_2_mbox_loc"
  type: "Convolution"
  bottom: "conv8_2"
  top: "conv8_2_mbox_loc"
  param {
    lr_mult: 1
    decay_mult: 1
  }
  param {
    lr_mult: 2
    decay_mult: 0
  }
  convolution_param {
    num_output: 16
    pad: 1
    kernel_size: 3
    stride: 1
    weight_filler {
      type: "xavier"
    }
    bias_filler {
      type: "constant"
      value: 0
    }
  }
}
layer {
  name: "conv8_2_mbox_loc_perm"
  type: "Permute"
  bottom: "conv8_2_mbox_loc"
  top: "conv8_2_mbox_loc_perm"
  permute_param {
    order: 0
    order: 2
    order: 3
    order: 1
  }
}
layer {
  name: "conv8_2_mbox_loc_flat"
  type: "Flatten"
  bottom: "conv8_2_mbox_loc_perm"
  top: "conv8_2_mbox_loc_flat"
  flatten_param {
    axis: 1
  }
}
layer {
  name: "conv8_2_mbox_conf"
  type: "Convolution"
  bottom: "conv8_2"
  top: "conv8_2_mbox_conf"
  param {
    lr_mult: 1
    decay_mult: 1
  }
  param {
    lr_mult: 2
    decay_mult: 0
  }
  convolution_param {
    num_output: 84
    pad: 1
    kernel_size: 3
    stride: 1
    weight_filler {
      type: "xavier"
    }
    bias_filler {
      type: "constant"
      value: 0
    }
  }
}
layer {
  name: "conv8_2_mbox_conf_perm"
  type: "Permute"
  bottom: "conv8_2_mbox_conf"
  top: "conv8_2_mbox_conf_perm"
  permute_param {
    order: 0
    order: 2
    order: 3
    order: 1
  }
}
layer {
  name: "conv8_2_mbox_conf_flat"
  type: "Flatten"
  bottom: "conv8_2_mbox_conf_perm"
  top: "conv8_2_mbox_conf_flat"
  flatten_param {
    axis: 1
  }
}
layer {
  name: "conv8_2_mbox_priorbox"
  type: "PriorBox"
  bottom: "conv8_2"
  bottom: "data"
  top: "conv8_2_mbox_priorbox"
  prior_box_param {
    min_size: 213
    max_size: 264
    aspect_ratio: 2
    flip: true
    clip: false
    variance: 0.1
    variance: 0.1
    variance: 0.2
    variance: 0.2
    step: 100
    offset: 0.5
  }
}
layer {
  name: "conv9_2_mbox_loc"
  type: "Convolution"
  bottom: "conv9_2"
  top: "conv9_2_mbox_loc"
  param {
    lr_mult: 1
    decay_mult: 1
  }
  param {
    lr_mult: 2
    decay_mult: 0
  }
  convolution_param {
    num_output: 16
    pad: 1
    kernel_size: 3
    stride: 1
    weight_filler {
      type: "xavier"
    }
    bias_filler {
      type: "constant"
      value: 0
    }
  }
}
layer {
  name: "conv9_2_mbox_loc_perm"
  type: "Permute"
  bottom: "conv9_2_mbox_loc"
  top: "conv9_2_mbox_loc_perm"
  permute_param {
    order: 0
    order: 2
    order: 3
    order: 1
  }
}
layer {
  name: "conv9_2_mbox_loc_flat"
  type: "Flatten"
  bottom: "conv9_2_mbox_loc_perm"
  top: "conv9_2_mbox_loc_flat"
  flatten_param {
    axis: 1
  }
}
layer {
  name: "conv9_2_mbox_conf"
  type: "Convolution"
  bottom: "conv9_2"
  top: "conv9_2_mbox_conf"
  param {
    lr_mult: 1
    decay_mult: 1
  }
  param {
    lr_mult: 2
    decay_mult: 0
  }
  convolution_param {
    num_output: 84
    pad: 1
    kernel_size: 3
    stride: 1
    weight_filler {
      type: "xavier"
    }
    bias_filler {
      type: "constant"
      value: 0
    }
  }
}
layer {
  name: "conv9_2_mbox_conf_perm"
  type: "Permute"
  bottom: "conv9_2_mbox_conf"
  top: "conv9_2_mbox_conf_perm"
  permute_param {
    order: 0
    order: 2
    order: 3
    order: 1
  }
}
layer {
  name: "conv9_2_mbox_conf_flat"
  type: "Flatten"
  bottom: "conv9_2_mbox_conf_perm"
  top: "conv9_2_mbox_conf_flat"
  flatten_param {
    axis: 1
  }
}
layer {
  name: "conv9_2_mbox_priorbox"
  type: "PriorBox"
  bottom: "conv9_2"
  bottom: "data"
  top: "conv9_2_mbox_priorbox"
  prior_box_param {
    min_size: 264
    max_size: 315
    aspect_ratio: 2
    flip: true
    clip: false
    variance: 0.1
    variance: 0.1
    variance: 0.2
    variance: 0.2
    step: 300
    offset: 0.5
  }
}
layer {
  name: "mbox_loc"
  type: "Concat"
  bottom: "conv4_3_norm_mbox_loc_flat"
  bottom: "fc7_mbox_loc_flat"
  bottom: "conv6_2_mbox_loc_flat"
  bottom: "conv7_2_mbox_loc_flat"
  bottom: "conv8_2_mbox_loc_flat"
  bottom: "conv9_2_mbox_loc_flat"
  top: "mbox_loc"
  concat_param {
    axis: 1
  }
}
layer {
  name: "mbox_conf"
  type: "Concat"
  bottom: "conv4_3_norm_mbox_conf_flat"
  bottom: "fc7_mbox_conf_flat"
  bottom: "conv6_2_mbox_conf_flat"
  bottom: "conv7_2_mbox_conf_flat"
  bottom: "conv8_2_mbox_conf_flat"
  bottom: "conv9_2_mbox_conf_flat"
  top: "mbox_conf"
  concat_param {
    axis: 1
  }
}
layer {
  name: "mbox_priorbox"
  type: "Concat"
  bottom: "conv4_3_norm_mbox_priorbox"
  bottom: "fc7_mbox_priorbox"
  bottom: "conv6_2_mbox_priorbox"
  bottom: "conv7_2_mbox_priorbox"
  bottom: "conv8_2_mbox_priorbox"
  bottom: "conv9_2_mbox_priorbox"
  top: "mbox_priorbox"
  concat_param {
    axis: 2
  }
}
layer {
  name: "mbox_conf_reshape"
  type: "Reshape"
  bottom: "mbox_conf"
  top: "mbox_conf_reshape"
  reshape_param {
    shape {
      dim: 0
      dim: -1
      dim: 21
    }
  }
}
layer {
  name: "mbox_conf_softmax"
  type: "Softmax"
  bottom: "mbox_conf_reshape"
  top: "mbox_conf_softmax"
  softmax_param {
    axis: 2
  }
}
layer {
  name: "mbox_conf_flatten"
  type: "Flatten"
  bottom: "mbox_conf_softmax"
  top: "mbox_conf_flatten"
  flatten_param {
    axis: 1
  }
}
layer {
  name: "detection_out"
  type: "DetectionOutput"
  bottom: "mbox_loc"
  bottom: "mbox_conf_flatten"
  bottom: "mbox_priorbox"
  top: "detection_out"
  include {
    phase: TEST
  }
  detection_output_param {
    num_classes: 21
    share_location: true
    background_label_id: 0
    nms_param {
      nms_threshold: 0.45
      top_k: 400
    }
    save_output_param {
      output_directory: "/home/lsj/data/VOCdevkit/results/VOC2007/SSD_300x300/Main"
      output_name_prefix: "comp4_det_test_"
      output_format: "VOC"
      label_map_file: "data/VOC0712/labelmap_voc.prototxt"
      name_size_file: "data/VOC0712/test_name_size.txt"
      num_test_image: 4952
    }
    code_type: CENTER_SIZE
    keep_top_k: 200
    confidence_threshold: 0.01
  }
}
layer {
  name: "detection_eval"
  type: "DetectionEvaluate"
  bottom: "detection_out"
  bottom: "label"
  top: "detection_eval"
  include {
    phase: TEST
  }
  detection_evaluate_param {
    num_classes: 21
    background_label_id: 0
    overlap_threshold: 0.5
    evaluate_difficult_gt: false
    name_size_file: "data/VOC0712/test_name_size.txt"
  }
}
I0617 16:55:29.968915 27250 layer_factory.hpp:77] Creating layer data
I0617 16:55:29.969024 27250 net.cpp:100] Creating Layer data
I0617 16:55:29.969040 27250 net.cpp:408] data -> data
I0617 16:55:29.969055 27250 net.cpp:408] data -> label
---- liusanjun: /home/lsj/VOCdevkit/VOC0712/lmdb/VOC0712_test_lmdb
I0617 16:55:29.970309 27289 db_lmdb.cpp:36] Opened lmdb /home/lsj/VOCdevkit/VOC0712/lmdb/VOC0712_test_lmdb
I0617 16:55:29.973647 27250 annotated_data_layer.cpp:62] output data size: 8,3,300,300
I0617 16:55:29.996086 27250 net.cpp:150] Setting up data
I0617 16:55:29.996181 27250 net.cpp:157] Top shape: 8 3 300 300 (2160000)
I0617 16:55:29.996193 27250 net.cpp:157] Top shape: 1 1 2 8 (16)
I0617 16:55:29.996201 27250 net.cpp:165] Memory required for data: 8640064
I0617 16:55:29.996230 27250 layer_factory.hpp:77] Creating layer data_data_0_split
I0617 16:55:29.996268 27250 net.cpp:100] Creating Layer data_data_0_split
I0617 16:55:29.996279 27250 net.cpp:434] data_data_0_split <- data
I0617 16:55:29.996297 27250 net.cpp:408] data_data_0_split -> data_data_0_split_0
I0617 16:55:29.996325 27250 net.cpp:408] data_data_0_split -> data_data_0_split_1
I0617 16:55:29.996340 27250 net.cpp:408] data_data_0_split -> data_data_0_split_2
I0617 16:55:29.996356 27250 net.cpp:408] data_data_0_split -> data_data_0_split_3
I0617 16:55:29.996367 27250 net.cpp:408] data_data_0_split -> data_data_0_split_4
I0617 16:55:29.996381 27250 net.cpp:408] data_data_0_split -> data_data_0_split_5
I0617 16:55:29.996387 27250 net.cpp:408] data_data_0_split -> data_data_0_split_6
I0617 16:55:29.996554 27250 net.cpp:150] Setting up data_data_0_split
I0617 16:55:29.996565 27250 net.cpp:157] Top shape: 8 3 300 300 (2160000)
I0617 16:55:29.996572 27250 net.cpp:157] Top shape: 8 3 300 300 (2160000)
I0617 16:55:29.996577 27250 net.cpp:157] Top shape: 8 3 300 300 (2160000)
I0617 16:55:29.996583 27250 net.cpp:157] Top shape: 8 3 300 300 (2160000)
I0617 16:55:29.996599 27250 net.cpp:157] Top shape: 8 3 300 300 (2160000)
I0617 16:55:29.996634 27250 net.cpp:157] Top shape: 8 3 300 300 (2160000)
I0617 16:55:29.996642 27250 net.cpp:157] Top shape: 8 3 300 300 (2160000)
I0617 16:55:29.996654 27250 net.cpp:165] Memory required for data: 69120064
I0617 16:55:29.996659 27250 layer_factory.hpp:77] Creating layer conv1_1
I0617 16:55:29.996680 27250 net.cpp:100] Creating Layer conv1_1
I0617 16:55:29.996686 27250 net.cpp:434] conv1_1 <- data_data_0_split_0
I0617 16:55:29.996700 27250 net.cpp:408] conv1_1 -> conv1_1
I0617 16:55:29.997180 27250 net.cpp:150] Setting up conv1_1
I0617 16:55:29.997202 27250 net.cpp:157] Top shape: 8 64 300 300 (46080000)
I0617 16:55:29.997213 27250 net.cpp:165] Memory required for data: 253440064
I0617 16:55:29.997242 27250 layer_factory.hpp:77] Creating layer relu1_1
I0617 16:55:29.997252 27250 net.cpp:100] Creating Layer relu1_1
I0617 16:55:29.997259 27250 net.cpp:434] relu1_1 <- conv1_1
I0617 16:55:29.997269 27250 net.cpp:395] relu1_1 -> conv1_1 (in-place)
I0617 16:55:29.997283 27250 net.cpp:150] Setting up relu1_1
I0617 16:55:29.997294 27250 net.cpp:157] Top shape: 8 64 300 300 (46080000)
I0617 16:55:29.997303 27250 net.cpp:165] Memory required for data: 437760064
I0617 16:55:29.997308 27250 layer_factory.hpp:77] Creating layer conv1_2
I0617 16:55:29.997324 27250 net.cpp:100] Creating Layer conv1_2
I0617 16:55:29.997334 27250 net.cpp:434] conv1_2 <- conv1_1
I0617 16:55:29.997345 27250 net.cpp:408] conv1_2 -> conv1_2
I0617 16:55:29.999438 27250 net.cpp:150] Setting up conv1_2
I0617 16:55:29.999477 27250 net.cpp:157] Top shape: 8 64 300 300 (46080000)
I0617 16:55:29.999483 27250 net.cpp:165] Memory required for data: 622080064
I0617 16:55:29.999502 27250 layer_factory.hpp:77] Creating layer relu1_2
I0617 16:55:29.999521 27250 net.cpp:100] Creating Layer relu1_2
I0617 16:55:29.999531 27250 net.cpp:434] relu1_2 <- conv1_2
I0617 16:55:29.999543 27250 net.cpp:395] relu1_2 -> conv1_2 (in-place)
I0617 16:55:29.999563 27250 net.cpp:150] Setting up relu1_2
I0617 16:55:29.999871 27250 net.cpp:157] Top shape: 8 64 300 300 (46080000)
I0617 16:55:29.999881 27250 net.cpp:165] Memory required for data: 806400064
I0617 16:55:29.999891 27250 layer_factory.hpp:77] Creating layer pool1
I0617 16:55:29.999905 27250 net.cpp:100] Creating Layer pool1
I0617 16:55:29.999912 27250 net.cpp:434] pool1 <- conv1_2
I0617 16:55:29.999922 27250 net.cpp:408] pool1 -> pool1
I0617 16:55:30.000018 27250 net.cpp:150] Setting up pool1
I0617 16:55:30.000026 27250 net.cpp:157] Top shape: 8 64 150 150 (11520000)
I0617 16:55:30.000031 27250 net.cpp:165] Memory required for data: 852480064
I0617 16:55:30.000036 27250 layer_factory.hpp:77] Creating layer conv2_1
I0617 16:55:30.000061 27250 net.cpp:100] Creating Layer conv2_1
I0617 16:55:30.000069 27250 net.cpp:434] conv2_1 <- pool1
I0617 16:55:30.000082 27250 net.cpp:408] conv2_1 -> conv2_1
I0617 16:55:30.001330 27250 net.cpp:150] Setting up conv2_1
I0617 16:55:30.001364 27250 net.cpp:157] Top shape: 8 128 150 150 (23040000)
I0617 16:55:30.001370 27250 net.cpp:165] Memory required for data: 944640064
I0617 16:55:30.001386 27250 layer_factory.hpp:77] Creating layer relu2_1
I0617 16:55:30.001401 27250 net.cpp:100] Creating Layer relu2_1
I0617 16:55:30.001408 27250 net.cpp:434] relu2_1 <- conv2_1
I0617 16:55:30.001415 27250 net.cpp:395] relu2_1 -> conv2_1 (in-place)
I0617 16:55:30.001422 27250 net.cpp:150] Setting up relu2_1
I0617 16:55:30.001430 27250 net.cpp:157] Top shape: 8 128 150 150 (23040000)
I0617 16:55:30.001435 27250 net.cpp:165] Memory required for data: 1036800064
I0617 16:55:30.001446 27250 layer_factory.hpp:77] Creating layer conv2_2
I0617 16:55:30.001463 27250 net.cpp:100] Creating Layer conv2_2
I0617 16:55:30.001471 27250 net.cpp:434] conv2_2 <- conv2_1
I0617 16:55:30.001482 27250 net.cpp:408] conv2_2 -> conv2_2
I0617 16:55:30.003870 27250 net.cpp:150] Setting up conv2_2
I0617 16:55:30.003932 27250 net.cpp:157] Top shape: 8 128 150 150 (23040000)
I0617 16:55:30.003937 27250 net.cpp:165] Memory required for data: 1128960064
I0617 16:55:30.003952 27250 layer_factory.hpp:77] Creating layer relu2_2
I0617 16:55:30.004005 27250 net.cpp:100] Creating Layer relu2_2
I0617 16:55:30.004011 27250 net.cpp:434] relu2_2 <- conv2_2
I0617 16:55:30.004040 27250 net.cpp:395] relu2_2 -> conv2_2 (in-place)
I0617 16:55:30.004050 27250 net.cpp:150] Setting up relu2_2
I0617 16:55:30.004062 27250 net.cpp:157] Top shape: 8 128 150 150 (23040000)
I0617 16:55:30.004065 27250 net.cpp:165] Memory required for data: 1221120064
I0617 16:55:30.004070 27250 layer_factory.hpp:77] Creating layer pool2
I0617 16:55:30.004076 27250 net.cpp:100] Creating Layer pool2
I0617 16:55:30.004081 27250 net.cpp:434] pool2 <- conv2_2
I0617 16:55:30.004087 27250 net.cpp:408] pool2 -> pool2
I0617 16:55:30.004132 27250 net.cpp:150] Setting up pool2
I0617 16:55:30.004138 27250 net.cpp:157] Top shape: 8 128 75 75 (5760000)
I0617 16:55:30.004142 27250 net.cpp:165] Memory required for data: 1244160064
I0617 16:55:30.004145 27250 layer_factory.hpp:77] Creating layer conv3_1
I0617 16:55:30.004158 27250 net.cpp:100] Creating Layer conv3_1
I0617 16:55:30.004163 27250 net.cpp:434] conv3_1 <- pool2
I0617 16:55:30.004170 27250 net.cpp:408] conv3_1 -> conv3_1
I0617 16:55:30.008114 27250 net.cpp:150] Setting up conv3_1
I0617 16:55:30.008159 27250 net.cpp:157] Top shape: 8 256 75 75 (11520000)
I0617 16:55:30.008167 27250 net.cpp:165] Memory required for data: 1290240064
I0617 16:55:30.008188 27250 layer_factory.hpp:77] Creating layer relu3_1
I0617 16:55:30.008213 27250 net.cpp:100] Creating Layer relu3_1
I0617 16:55:30.008222 27250 net.cpp:434] relu3_1 <- conv3_1
I0617 16:55:30.008236 27250 net.cpp:395] relu3_1 -> conv3_1 (in-place)
I0617 16:55:30.008254 27250 net.cpp:150] Setting up relu3_1
I0617 16:55:30.008262 27250 net.cpp:157] Top shape: 8 256 75 75 (11520000)
I0617 16:55:30.008268 27250 net.cpp:165] Memory required for data: 1336320064
I0617 16:55:30.008275 27250 layer_factory.hpp:77] Creating layer conv3_2
I0617 16:55:30.008304 27250 net.cpp:100] Creating Layer conv3_2
I0617 16:55:30.008311 27250 net.cpp:434] conv3_2 <- conv3_1
I0617 16:55:30.008322 27250 net.cpp:408] conv3_2 -> conv3_2
I0617 16:55:30.013943 27250 net.cpp:150] Setting up conv3_2
I0617 16:55:30.013959 27250 net.cpp:157] Top shape: 8 256 75 75 (11520000)
I0617 16:55:30.013963 27250 net.cpp:165] Memory required for data: 1382400064
I0617 16:55:30.013969 27250 layer_factory.hpp:77] Creating layer relu3_2
I0617 16:55:30.013983 27250 net.cpp:100] Creating Layer relu3_2
I0617 16:55:30.013986 27250 net.cpp:434] relu3_2 <- conv3_2
I0617 16:55:30.013991 27250 net.cpp:395] relu3_2 -> conv3_2 (in-place)
I0617 16:55:30.013998 27250 net.cpp:150] Setting up relu3_2
I0617 16:55:30.014003 27250 net.cpp:157] Top shape: 8 256 75 75 (11520000)
I0617 16:55:30.014005 27250 net.cpp:165] Memory required for data: 1428480064
I0617 16:55:30.014008 27250 layer_factory.hpp:77] Creating layer conv3_3
I0617 16:55:30.014020 27250 net.cpp:100] Creating Layer conv3_3
I0617 16:55:30.014029 27250 net.cpp:434] conv3_3 <- conv3_2
I0617 16:55:30.014035 27250 net.cpp:408] conv3_3 -> conv3_3
I0617 16:55:30.019325 27250 net.cpp:150] Setting up conv3_3
I0617 16:55:30.019382 27250 net.cpp:157] Top shape: 8 256 75 75 (11520000)
I0617 16:55:30.019387 27250 net.cpp:165] Memory required for data: 1474560064
I0617 16:55:30.019397 27250 layer_factory.hpp:77] Creating layer relu3_3
I0617 16:55:30.019409 27250 net.cpp:100] Creating Layer relu3_3
I0617 16:55:30.019415 27250 net.cpp:434] relu3_3 <- conv3_3
I0617 16:55:30.019424 27250 net.cpp:395] relu3_3 -> conv3_3 (in-place)
I0617 16:55:30.019443 27250 net.cpp:150] Setting up relu3_3
I0617 16:55:30.019446 27250 net.cpp:157] Top shape: 8 256 75 75 (11520000)
I0617 16:55:30.019449 27250 net.cpp:165] Memory required for data: 1520640064
I0617 16:55:30.019459 27250 layer_factory.hpp:77] Creating layer pool3
I0617 16:55:30.019466 27250 net.cpp:100] Creating Layer pool3
I0617 16:55:30.019469 27250 net.cpp:434] pool3 <- conv3_3
I0617 16:55:30.019476 27250 net.cpp:408] pool3 -> pool3
I0617 16:55:30.019516 27250 net.cpp:150] Setting up pool3
I0617 16:55:30.019521 27250 net.cpp:157] Top shape: 8 256 38 38 (2957312)
I0617 16:55:30.019547 27250 net.cpp:165] Memory required for data: 1532469312
I0617 16:55:30.019551 27250 layer_factory.hpp:77] Creating layer conv4_1
I0617 16:55:30.019585 27250 net.cpp:100] Creating Layer conv4_1
I0617 16:55:30.020015 27250 net.cpp:434] conv4_1 <- pool3
I0617 16:55:30.020030 27250 net.cpp:408] conv4_1 -> conv4_1
I0617 16:55:30.029964 27250 net.cpp:150] Setting up conv4_1
I0617 16:55:30.030030 27250 net.cpp:157] Top shape: 8 512 38 38 (5914624)
I0617 16:55:30.030035 27250 net.cpp:165] Memory required for data: 1556127808
I0617 16:55:30.030045 27250 layer_factory.hpp:77] Creating layer relu4_1
I0617 16:55:30.030057 27250 net.cpp:100] Creating Layer relu4_1
I0617 16:55:30.030063 27250 net.cpp:434] relu4_1 <- conv4_1
I0617 16:55:30.030072 27250 net.cpp:395] relu4_1 -> conv4_1 (in-place)
I0617 16:55:30.030091 27250 net.cpp:150] Setting up relu4_1
I0617 16:55:30.030095 27250 net.cpp:157] Top shape: 8 512 38 38 (5914624)
I0617 16:55:30.030098 27250 net.cpp:165] Memory required for data: 1579786304
I0617 16:55:30.030102 27250 layer_factory.hpp:77] Creating layer conv4_2
I0617 16:55:30.030115 27250 net.cpp:100] Creating Layer conv4_2
I0617 16:55:30.030119 27250 net.cpp:434] conv4_2 <- conv4_1
I0617 16:55:30.030125 27250 net.cpp:408] conv4_2 -> conv4_2
I0617 16:55:30.051345 27250 net.cpp:150] Setting up conv4_2
I0617 16:55:30.051406 27250 net.cpp:157] Top shape: 8 512 38 38 (5914624)
I0617 16:55:30.051410 27250 net.cpp:165] Memory required for data: 1603444800
I0617 16:55:30.051427 27250 layer_factory.hpp:77] Creating layer relu4_2
I0617 16:55:30.051441 27250 net.cpp:100] Creating Layer relu4_2
I0617 16:55:30.051446 27250 net.cpp:434] relu4_2 <- conv4_2
I0617 16:55:30.051456 27250 net.cpp:395] relu4_2 -> conv4_2 (in-place)
I0617 16:55:30.051466 27250 net.cpp:150] Setting up relu4_2
I0617 16:55:30.051478 27250 net.cpp:157] Top shape: 8 512 38 38 (5914624)
I0617 16:55:30.051481 27250 net.cpp:165] Memory required for data: 1627103296
I0617 16:55:30.051484 27250 layer_factory.hpp:77] Creating layer conv4_3
I0617 16:55:30.051496 27250 net.cpp:100] Creating Layer conv4_3
I0617 16:55:30.051501 27250 net.cpp:434] conv4_3 <- conv4_2
I0617 16:55:30.051506 27250 net.cpp:408] conv4_3 -> conv4_3
I0617 16:55:30.073158 27250 net.cpp:150] Setting up conv4_3
I0617 16:55:30.073220 27250 net.cpp:157] Top shape: 8 512 38 38 (5914624)
I0617 16:55:30.073225 27250 net.cpp:165] Memory required for data: 1650761792
I0617 16:55:30.073235 27250 layer_factory.hpp:77] Creating layer relu4_3
I0617 16:55:30.073248 27250 net.cpp:100] Creating Layer relu4_3
I0617 16:55:30.073256 27250 net.cpp:434] relu4_3 <- conv4_3
I0617 16:55:30.073264 27250 net.cpp:395] relu4_3 -> conv4_3 (in-place)
I0617 16:55:30.073276 27250 net.cpp:150] Setting up relu4_3
I0617 16:55:30.073282 27250 net.cpp:157] Top shape: 8 512 38 38 (5914624)
I0617 16:55:30.073284 27250 net.cpp:165] Memory required for data: 1674420288
I0617 16:55:30.073287 27250 layer_factory.hpp:77] Creating layer conv4_3_relu4_3_0_split
I0617 16:55:30.073294 27250 net.cpp:100] Creating Layer conv4_3_relu4_3_0_split
I0617 16:55:30.073298 27250 net.cpp:434] conv4_3_relu4_3_0_split <- conv4_3
I0617 16:55:30.073303 27250 net.cpp:408] conv4_3_relu4_3_0_split -> conv4_3_relu4_3_0_split_0
I0617 16:55:30.073317 27250 net.cpp:408] conv4_3_relu4_3_0_split -> conv4_3_relu4_3_0_split_1
I0617 16:55:30.073352 27250 net.cpp:150] Setting up conv4_3_relu4_3_0_split
I0617 16:55:30.073359 27250 net.cpp:157] Top shape: 8 512 38 38 (5914624)
I0617 16:55:30.073364 27250 net.cpp:157] Top shape: 8 512 38 38 (5914624)
I0617 16:55:30.073366 27250 net.cpp:165] Memory required for data: 1721737280
I0617 16:55:30.073370 27250 layer_factory.hpp:77] Creating layer pool4
I0617 16:55:30.073379 27250 net.cpp:100] Creating Layer pool4
I0617 16:55:30.073381 27250 net.cpp:434] pool4 <- conv4_3_relu4_3_0_split_0
I0617 16:55:30.073388 27250 net.cpp:408] pool4 -> pool4
I0617 16:55:30.073424 27250 net.cpp:150] Setting up pool4
I0617 16:55:30.073431 27250 net.cpp:157] Top shape: 8 512 19 19 (1478656)
I0617 16:55:30.073433 27250 net.cpp:165] Memory required for data: 1727651904
I0617 16:55:30.073454 27250 layer_factory.hpp:77] Creating layer conv5_1
I0617 16:55:30.073468 27250 net.cpp:100] Creating Layer conv5_1
I0617 16:55:30.073472 27250 net.cpp:434] conv5_1 <- pool4
I0617 16:55:30.073478 27250 net.cpp:408] conv5_1 -> conv5_1
I0617 16:55:30.095074 27250 net.cpp:150] Setting up conv5_1
I0617 16:55:30.095137 27250 net.cpp:157] Top shape: 8 512 19 19 (1478656)
I0617 16:55:30.095144 27250 net.cpp:165] Memory required for data: 1733566528
I0617 16:55:30.095154 27250 layer_factory.hpp:77] Creating layer relu5_1
I0617 16:55:30.095168 27250 net.cpp:100] Creating Layer relu5_1
I0617 16:55:30.095181 27250 net.cpp:434] relu5_1 <- conv5_1
I0617 16:55:30.095191 27250 net.cpp:395] relu5_1 -> conv5_1 (in-place)
I0617 16:55:30.095201 27250 net.cpp:150] Setting up relu5_1
I0617 16:55:30.095206 27250 net.cpp:157] Top shape: 8 512 19 19 (1478656)
I0617 16:55:30.095209 27250 net.cpp:165] Memory required for data: 1739481152
I0617 16:55:30.095212 27250 layer_factory.hpp:77] Creating layer conv5_2
I0617 16:55:30.095224 27250 net.cpp:100] Creating Layer conv5_2
I0617 16:55:30.095228 27250 net.cpp:434] conv5_2 <- conv5_1
I0617 16:55:30.095235 27250 net.cpp:408] conv5_2 -> conv5_2
I0617 16:55:30.124364 27250 net.cpp:150] Setting up conv5_2
I0617 16:55:30.124426 27250 net.cpp:157] Top shape: 8 512 19 19 (1478656)
I0617 16:55:30.124430 27250 net.cpp:165] Memory required for data: 1745395776
I0617 16:55:30.124442 27250 layer_factory.hpp:77] Creating layer relu5_2
I0617 16:55:30.124456 27250 net.cpp:100] Creating Layer relu5_2
I0617 16:55:30.124462 27250 net.cpp:434] relu5_2 <- conv5_2
I0617 16:55:30.124478 27250 net.cpp:395] relu5_2 -> conv5_2 (in-place)
I0617 16:55:30.124490 27250 net.cpp:150] Setting up relu5_2
I0617 16:55:30.124495 27250 net.cpp:157] Top shape: 8 512 19 19 (1478656)
I0617 16:55:30.124498 27250 net.cpp:165] Memory required for data: 1751310400
I0617 16:55:30.124502 27250 layer_factory.hpp:77] Creating layer conv5_3
I0617 16:55:30.124516 27250 net.cpp:100] Creating Layer conv5_3
I0617 16:55:30.124527 27250 net.cpp:434] conv5_3 <- conv5_2
I0617 16:55:30.124533 27250 net.cpp:408] conv5_3 -> conv5_3
I0617 16:55:30.145079 27250 net.cpp:150] Setting up conv5_3
I0617 16:55:30.145133 27250 net.cpp:157] Top shape: 8 512 19 19 (1478656)
I0617 16:55:30.145138 27250 net.cpp:165] Memory required for data: 1757225024
I0617 16:55:30.145148 27250 layer_factory.hpp:77] Creating layer relu5_3
I0617 16:55:30.145165 27250 net.cpp:100] Creating Layer relu5_3
I0617 16:55:30.145179 27250 net.cpp:434] relu5_3 <- conv5_3
I0617 16:55:30.145186 27250 net.cpp:395] relu5_3 -> conv5_3 (in-place)
I0617 16:55:30.145198 27250 net.cpp:150] Setting up relu5_3
I0617 16:55:30.145202 27250 net.cpp:157] Top shape: 8 512 19 19 (1478656)
I0617 16:55:30.145205 27250 net.cpp:165] Memory required for data: 1763139648
I0617 16:55:30.145208 27250 layer_factory.hpp:77] Creating layer pool5
I0617 16:55:30.145215 27250 net.cpp:100] Creating Layer pool5
I0617 16:55:30.145220 27250 net.cpp:434] pool5 <- conv5_3
I0617 16:55:30.145225 27250 net.cpp:408] pool5 -> pool5
I0617 16:55:30.145265 27250 net.cpp:150] Setting up pool5
I0617 16:55:30.145272 27250 net.cpp:157] Top shape: 8 512 19 19 (1478656)
I0617 16:55:30.145275 27250 net.cpp:165] Memory required for data: 1769054272
I0617 16:55:30.145279 27250 layer_factory.hpp:77] Creating layer fc6
I0617 16:55:30.145292 27250 net.cpp:100] Creating Layer fc6
I0617 16:55:30.145298 27250 net.cpp:434] fc6 <- pool5
I0617 16:55:30.145304 27250 net.cpp:408] fc6 -> fc6
I0617 16:55:30.314489 27250 net.cpp:150] Setting up fc6
I0617 16:55:30.314548 27250 net.cpp:157] Top shape: 8 1024 19 19 (2957312)
I0617 16:55:30.314554 27250 net.cpp:165] Memory required for data: 1780883520
I0617 16:55:30.314564 27250 layer_factory.hpp:77] Creating layer relu6
I0617 16:55:30.314579 27250 net.cpp:100] Creating Layer relu6
I0617 16:55:30.314585 27250 net.cpp:434] relu6 <- fc6
I0617 16:55:30.314594 27250 net.cpp:395] relu6 -> fc6 (in-place)
I0617 16:55:30.314605 27250 net.cpp:150] Setting up relu6
I0617 16:55:30.314646 27250 net.cpp:157] Top shape: 8 1024 19 19 (2957312)
I0617 16:55:30.314656 27250 net.cpp:165] Memory required for data: 1792712768
I0617 16:55:30.314659 27250 layer_factory.hpp:77] Creating layer fc7
I0617 16:55:30.314673 27250 net.cpp:100] Creating Layer fc7
I0617 16:55:30.314678 27250 net.cpp:434] fc7 <- fc6
I0617 16:55:30.314684 27250 net.cpp:408] fc7 -> fc7
I0617 16:55:30.324048 27250 net.cpp:150] Setting up fc7
I0617 16:55:30.324105 27250 net.cpp:157] Top shape: 8 1024 19 19 (2957312)
I0617 16:55:30.324110 27250 net.cpp:165] Memory required for data: 1804542016
I0617 16:55:30.324118 27250 layer_factory.hpp:77] Creating layer relu7
I0617 16:55:30.324134 27250 net.cpp:100] Creating Layer relu7
I0617 16:55:30.324141 27250 net.cpp:434] relu7 <- fc7
I0617 16:55:30.324149 27250 net.cpp:395] relu7 -> fc7 (in-place)
I0617 16:55:30.324160 27250 net.cpp:150] Setting up relu7
I0617 16:55:30.324164 27250 net.cpp:157] Top shape: 8 1024 19 19 (2957312)
I0617 16:55:30.324167 27250 net.cpp:165] Memory required for data: 1816371264
I0617 16:55:30.324172 27250 layer_factory.hpp:77] Creating layer fc7_relu7_0_split
I0617 16:55:30.324178 27250 net.cpp:100] Creating Layer fc7_relu7_0_split
I0617 16:55:30.324182 27250 net.cpp:434] fc7_relu7_0_split <- fc7
I0617 16:55:30.324187 27250 net.cpp:408] fc7_relu7_0_split -> fc7_relu7_0_split_0
I0617 16:55:30.324193 27250 net.cpp:408] fc7_relu7_0_split -> fc7_relu7_0_split_1
I0617 16:55:30.324206 27250 net.cpp:408] fc7_relu7_0_split -> fc7_relu7_0_split_2
I0617 16:55:30.324223 27250 net.cpp:408] fc7_relu7_0_split -> fc7_relu7_0_split_3
I0617 16:55:30.324285 27250 net.cpp:150] Setting up fc7_relu7_0_split
I0617 16:55:30.324291 27250 net.cpp:157] Top shape: 8 1024 19 19 (2957312)
I0617 16:55:30.324296 27250 net.cpp:157] Top shape: 8 1024 19 19 (2957312)
I0617 16:55:30.324301 27250 net.cpp:157] Top shape: 8 1024 19 19 (2957312)
I0617 16:55:30.324304 27250 net.cpp:157] Top shape: 8 1024 19 19 (2957312)
I0617 16:55:30.324307 27250 net.cpp:165] Memory required for data: 1863688256
I0617 16:55:30.324311 27250 layer_factory.hpp:77] Creating layer conv6_1
I0617 16:55:30.324326 27250 net.cpp:100] Creating Layer conv6_1
I0617 16:55:30.324331 27250 net.cpp:434] conv6_1 <- fc7_relu7_0_split_0
I0617 16:55:30.324339 27250 net.cpp:408] conv6_1 -> conv6_1
I0617 16:55:30.327090 27250 net.cpp:150] Setting up conv6_1
I0617 16:55:30.327145 27250 net.cpp:157] Top shape: 8 256 19 19 (739328)
I0617 16:55:30.327149 27250 net.cpp:165] Memory required for data: 1866645568
I0617 16:55:30.327158 27250 layer_factory.hpp:77] Creating layer conv6_1_relu
I0617 16:55:30.327172 27250 net.cpp:100] Creating Layer conv6_1_relu
I0617 16:55:30.327178 27250 net.cpp:434] conv6_1_relu <- conv6_1
I0617 16:55:30.327186 27250 net.cpp:395] conv6_1_relu -> conv6_1 (in-place)
I0617 16:55:30.327196 27250 net.cpp:150] Setting up conv6_1_relu
I0617 16:55:30.327200 27250 net.cpp:157] Top shape: 8 256 19 19 (739328)
I0617 16:55:30.327203 27250 net.cpp:165] Memory required for data: 1869602880
I0617 16:55:30.327208 27250 layer_factory.hpp:77] Creating layer conv6_2
I0617 16:55:30.327221 27250 net.cpp:100] Creating Layer conv6_2
I0617 16:55:30.327224 27250 net.cpp:434] conv6_2 <- conv6_1
I0617 16:55:30.327232 27250 net.cpp:408] conv6_2 -> conv6_2
I0617 16:55:30.337951 27250 net.cpp:150] Setting up conv6_2
I0617 16:55:30.338008 27250 net.cpp:157] Top shape: 8 512 10 10 (409600)
I0617 16:55:30.338014 27250 net.cpp:165] Memory required for data: 1871241280
I0617 16:55:30.338034 27250 layer_factory.hpp:77] Creating layer conv6_2_relu
I0617 16:55:30.338053 27250 net.cpp:100] Creating Layer conv6_2_relu
I0617 16:55:30.338060 27250 net.cpp:434] conv6_2_relu <- conv6_2
I0617 16:55:30.338083 27250 net.cpp:395] conv6_2_relu -> conv6_2 (in-place)
I0617 16:55:30.338094 27250 net.cpp:150] Setting up conv6_2_relu
I0617 16:55:30.338099 27250 net.cpp:157] Top shape: 8 512 10 10 (409600)
I0617 16:55:30.338101 27250 net.cpp:165] Memory required for data: 1872879680
I0617 16:55:30.338104 27250 layer_factory.hpp:77] Creating layer conv6_2_conv6_2_relu_0_split
I0617 16:55:30.338131 27250 net.cpp:100] Creating Layer conv6_2_conv6_2_relu_0_split
I0617 16:55:30.338135 27250 net.cpp:434] conv6_2_conv6_2_relu_0_split <- conv6_2
I0617 16:55:30.338140 27250 net.cpp:408] conv6_2_conv6_2_relu_0_split -> conv6_2_conv6_2_relu_0_split_0
I0617 16:55:30.338150 27250 net.cpp:408] conv6_2_conv6_2_relu_0_split -> conv6_2_conv6_2_relu_0_split_1
I0617 16:55:30.338156 27250 net.cpp:408] conv6_2_conv6_2_relu_0_split -> conv6_2_conv6_2_relu_0_split_2
I0617 16:55:30.338162 27250 net.cpp:408] conv6_2_conv6_2_relu_0_split -> conv6_2_conv6_2_relu_0_split_3
I0617 16:55:30.338228 27250 net.cpp:150] Setting up conv6_2_conv6_2_relu_0_split
I0617 16:55:30.338237 27250 net.cpp:157] Top shape: 8 512 10 10 (409600)
I0617 16:55:30.338241 27250 net.cpp:157] Top shape: 8 512 10 10 (409600)
I0617 16:55:30.338245 27250 net.cpp:157] Top shape: 8 512 10 10 (409600)
I0617 16:55:30.338248 27250 net.cpp:157] Top shape: 8 512 10 10 (409600)
I0617 16:55:30.338251 27250 net.cpp:165] Memory required for data: 1879433280
I0617 16:55:30.338255 27250 layer_factory.hpp:77] Creating layer conv7_1
I0617 16:55:30.338268 27250 net.cpp:100] Creating Layer conv7_1
I0617 16:55:30.338274 27250 net.cpp:434] conv7_1 <- conv6_2_conv6_2_relu_0_split_0
I0617 16:55:30.338291 27250 net.cpp:408] conv7_1 -> conv7_1
I0617 16:55:30.339764 27250 net.cpp:150] Setting up conv7_1
I0617 16:55:30.339787 27250 net.cpp:157] Top shape: 8 128 10 10 (102400)
I0617 16:55:30.339802 27250 net.cpp:165] Memory required for data: 1879842880
I0617 16:55:30.339810 27250 layer_factory.hpp:77] Creating layer conv7_1_relu
I0617 16:55:30.339820 27250 net.cpp:100] Creating Layer conv7_1_relu
I0617 16:55:30.339824 27250 net.cpp:434] conv7_1_relu <- conv7_1
I0617 16:55:30.339830 27250 net.cpp:395] conv7_1_relu -> conv7_1 (in-place)
I0617 16:55:30.339838 27250 net.cpp:150] Setting up conv7_1_relu
I0617 16:55:30.339843 27250 net.cpp:157] Top shape: 8 128 10 10 (102400)
I0617 16:55:30.339845 27250 net.cpp:165] Memory required for data: 1880252480
I0617 16:55:30.339848 27250 layer_factory.hpp:77] Creating layer conv7_2
I0617 16:55:30.339861 27250 net.cpp:100] Creating Layer conv7_2
I0617 16:55:30.339864 27250 net.cpp:434] conv7_2 <- conv7_1
I0617 16:55:30.339871 27250 net.cpp:408] conv7_2 -> conv7_2
I0617 16:55:30.342856 27250 net.cpp:150] Setting up conv7_2
I0617 16:55:30.342913 27250 net.cpp:157] Top shape: 8 256 5 5 (51200)
I0617 16:55:30.342917 27250 net.cpp:165] Memory required for data: 1880457280
I0617 16:55:30.342926 27250 layer_factory.hpp:77] Creating layer conv7_2_relu
I0617 16:55:30.342938 27250 net.cpp:100] Creating Layer conv7_2_relu
I0617 16:55:30.342944 27250 net.cpp:434] conv7_2_relu <- conv7_2
I0617 16:55:30.342958 27250 net.cpp:395] conv7_2_relu -> conv7_2 (in-place)
I0617 16:55:30.342974 27250 net.cpp:150] Setting up conv7_2_relu
I0617 16:55:30.342978 27250 net.cpp:157] Top shape: 8 256 5 5 (51200)
I0617 16:55:30.342981 27250 net.cpp:165] Memory required for data: 1880662080
I0617 16:55:30.342985 27250 layer_factory.hpp:77] Creating layer conv7_2_conv7_2_relu_0_split
I0617 16:55:30.342991 27250 net.cpp:100] Creating Layer conv7_2_conv7_2_relu_0_split
I0617 16:55:30.342995 27250 net.cpp:434] conv7_2_conv7_2_relu_0_split <- conv7_2
I0617 16:55:30.343003 27250 net.cpp:408] conv7_2_conv7_2_relu_0_split -> conv7_2_conv7_2_relu_0_split_0
I0617 16:55:30.343009 27250 net.cpp:408] conv7_2_conv7_2_relu_0_split -> conv7_2_conv7_2_relu_0_split_1
I0617 16:55:30.343015 27250 net.cpp:408] conv7_2_conv7_2_relu_0_split -> conv7_2_conv7_2_relu_0_split_2
I0617 16:55:30.343021 27250 net.cpp:408] conv7_2_conv7_2_relu_0_split -> conv7_2_conv7_2_relu_0_split_3
I0617 16:55:30.343086 27250 net.cpp:150] Setting up conv7_2_conv7_2_relu_0_split
I0617 16:55:30.343097 27250 net.cpp:157] Top shape: 8 256 5 5 (51200)
I0617 16:55:30.343104 27250 net.cpp:157] Top shape: 8 256 5 5 (51200)
I0617 16:55:30.343108 27250 net.cpp:157] Top shape: 8 256 5 5 (51200)
I0617 16:55:30.343111 27250 net.cpp:157] Top shape: 8 256 5 5 (51200)
I0617 16:55:30.343114 27250 net.cpp:165] Memory required for data: 1881481280
I0617 16:55:30.343137 27250 layer_factory.hpp:77] Creating layer conv8_1
I0617 16:55:30.343163 27250 net.cpp:100] Creating Layer conv8_1
I0617 16:55:30.343169 27250 net.cpp:434] conv8_1 <- conv7_2_conv7_2_relu_0_split_0
I0617 16:55:30.343175 27250 net.cpp:408] conv8_1 -> conv8_1
I0617 16:55:30.343849 27250 net.cpp:150] Setting up conv8_1
I0617 16:55:30.343863 27250 net.cpp:157] Top shape: 8 128 5 5 (25600)
I0617 16:55:30.343866 27250 net.cpp:165] Memory required for data: 1881583680
I0617 16:55:30.343873 27250 layer_factory.hpp:77] Creating layer conv8_1_relu
I0617 16:55:30.343879 27250 net.cpp:100] Creating Layer conv8_1_relu
I0617 16:55:30.343883 27250 net.cpp:434] conv8_1_relu <- conv8_1
I0617 16:55:30.343889 27250 net.cpp:395] conv8_1_relu -> conv8_1 (in-place)
I0617 16:55:30.343895 27250 net.cpp:150] Setting up conv8_1_relu
I0617 16:55:30.343900 27250 net.cpp:157] Top shape: 8 128 5 5 (25600)
I0617 16:55:30.343902 27250 net.cpp:165] Memory required for data: 1881686080
I0617 16:55:30.343906 27250 layer_factory.hpp:77] Creating layer conv8_2
I0617 16:55:30.343917 27250 net.cpp:100] Creating Layer conv8_2
I0617 16:55:30.343927 27250 net.cpp:434] conv8_2 <- conv8_1
I0617 16:55:30.343932 27250 net.cpp:408] conv8_2 -> conv8_2
I0617 16:55:30.346848 27250 net.cpp:150] Setting up conv8_2
I0617 16:55:30.346865 27250 net.cpp:157] Top shape: 8 256 3 3 (18432)
I0617 16:55:30.346880 27250 net.cpp:165] Memory required for data: 1881759808
I0617 16:55:30.346887 27250 layer_factory.hpp:77] Creating layer conv8_2_relu
I0617 16:55:30.346894 27250 net.cpp:100] Creating Layer conv8_2_relu
I0617 16:55:30.346897 27250 net.cpp:434] conv8_2_relu <- conv8_2
I0617 16:55:30.346902 27250 net.cpp:395] conv8_2_relu -> conv8_2 (in-place)
I0617 16:55:30.346909 27250 net.cpp:150] Setting up conv8_2_relu
I0617 16:55:30.346915 27250 net.cpp:157] Top shape: 8 256 3 3 (18432)
I0617 16:55:30.346920 27250 net.cpp:165] Memory required for data: 1881833536
I0617 16:55:30.346922 27250 layer_factory.hpp:77] Creating layer conv8_2_conv8_2_relu_0_split
I0617 16:55:30.346928 27250 net.cpp:100] Creating Layer conv8_2_conv8_2_relu_0_split
I0617 16:55:30.346931 27250 net.cpp:434] conv8_2_conv8_2_relu_0_split <- conv8_2
I0617 16:55:30.346938 27250 net.cpp:408] conv8_2_conv8_2_relu_0_split -> conv8_2_conv8_2_relu_0_split_0
I0617 16:55:30.346945 27250 net.cpp:408] conv8_2_conv8_2_relu_0_split -> conv8_2_conv8_2_relu_0_split_1
I0617 16:55:30.346951 27250 net.cpp:408] conv8_2_conv8_2_relu_0_split -> conv8_2_conv8_2_relu_0_split_2
I0617 16:55:30.346956 27250 net.cpp:408] conv8_2_conv8_2_relu_0_split -> conv8_2_conv8_2_relu_0_split_3
I0617 16:55:30.347019 27250 net.cpp:150] Setting up conv8_2_conv8_2_relu_0_split
I0617 16:55:30.347026 27250 net.cpp:157] Top shape: 8 256 3 3 (18432)
I0617 16:55:30.347030 27250 net.cpp:157] Top shape: 8 256 3 3 (18432)
I0617 16:55:30.347034 27250 net.cpp:157] Top shape: 8 256 3 3 (18432)
I0617 16:55:30.347038 27250 net.cpp:157] Top shape: 8 256 3 3 (18432)
I0617 16:55:30.347040 27250 net.cpp:165] Memory required for data: 1882128448
I0617 16:55:30.347043 27250 layer_factory.hpp:77] Creating layer conv9_1
I0617 16:55:30.347055 27250 net.cpp:100] Creating Layer conv9_1
I0617 16:55:30.347061 27250 net.cpp:434] conv9_1 <- conv8_2_conv8_2_relu_0_split_0
I0617 16:55:30.347067 27250 net.cpp:408] conv9_1 -> conv9_1
I0617 16:55:30.347522 27250 net.cpp:150] Setting up conv9_1
I0617 16:55:30.347532 27250 net.cpp:157] Top shape: 8 128 3 3 (9216)
I0617 16:55:30.347545 27250 net.cpp:165] Memory required for data: 1882165312
I0617 16:55:30.347551 27250 layer_factory.hpp:77] Creating layer conv9_1_relu
I0617 16:55:30.347558 27250 net.cpp:100] Creating Layer conv9_1_relu
I0617 16:55:30.347568 27250 net.cpp:434] conv9_1_relu <- conv9_1
I0617 16:55:30.347578 27250 net.cpp:395] conv9_1_relu -> conv9_1 (in-place)
I0617 16:55:30.347584 27250 net.cpp:150] Setting up conv9_1_relu
I0617 16:55:30.347587 27250 net.cpp:157] Top shape: 8 128 3 3 (9216)
I0617 16:55:30.347590 27250 net.cpp:165] Memory required for data: 1882202176
I0617 16:55:30.347594 27250 layer_factory.hpp:77] Creating layer conv9_2
I0617 16:55:30.347620 27250 net.cpp:100] Creating Layer conv9_2
I0617 16:55:30.347625 27250 net.cpp:434] conv9_2 <- conv9_1
I0617 16:55:30.347630 27250 net.cpp:408] conv9_2 -> conv9_2
I0617 16:55:30.350677 27250 net.cpp:150] Setting up conv9_2
I0617 16:55:30.350729 27250 net.cpp:157] Top shape: 8 256 1 1 (2048)
I0617 16:55:30.350733 27250 net.cpp:165] Memory required for data: 1882210368
I0617 16:55:30.350742 27250 layer_factory.hpp:77] Creating layer conv9_2_relu
I0617 16:55:30.350755 27250 net.cpp:100] Creating Layer conv9_2_relu
I0617 16:55:30.350762 27250 net.cpp:434] conv9_2_relu <- conv9_2
I0617 16:55:30.350769 27250 net.cpp:395] conv9_2_relu -> conv9_2 (in-place)
I0617 16:55:30.350783 27250 net.cpp:150] Setting up conv9_2_relu
I0617 16:55:30.350787 27250 net.cpp:157] Top shape: 8 256 1 1 (2048)
I0617 16:55:30.350790 27250 net.cpp:165] Memory required for data: 1882218560
I0617 16:55:30.350795 27250 layer_factory.hpp:77] Creating layer conv9_2_conv9_2_relu_0_split
I0617 16:55:30.350801 27250 net.cpp:100] Creating Layer conv9_2_conv9_2_relu_0_split
I0617 16:55:30.350805 27250 net.cpp:434] conv9_2_conv9_2_relu_0_split <- conv9_2
I0617 16:55:30.350811 27250 net.cpp:408] conv9_2_conv9_2_relu_0_split -> conv9_2_conv9_2_relu_0_split_0
I0617 16:55:30.350817 27250 net.cpp:408] conv9_2_conv9_2_relu_0_split -> conv9_2_conv9_2_relu_0_split_1
I0617 16:55:30.350823 27250 net.cpp:408] conv9_2_conv9_2_relu_0_split -> conv9_2_conv9_2_relu_0_split_2
I0617 16:55:30.350872 27250 net.cpp:150] Setting up conv9_2_conv9_2_relu_0_split
I0617 16:55:30.350879 27250 net.cpp:157] Top shape: 8 256 1 1 (2048)
I0617 16:55:30.350883 27250 net.cpp:157] Top shape: 8 256 1 1 (2048)
I0617 16:55:30.350888 27250 net.cpp:157] Top shape: 8 256 1 1 (2048)
I0617 16:55:30.350890 27250 net.cpp:165] Memory required for data: 1882243136
I0617 16:55:30.350893 27250 layer_factory.hpp:77] Creating layer conv4_3_norm
I0617 16:55:30.350905 27250 net.cpp:100] Creating Layer conv4_3_norm
I0617 16:55:30.350911 27250 net.cpp:434] conv4_3_norm <- conv4_3_relu4_3_0_split_1
I0617 16:55:30.350919 27250 net.cpp:408] conv4_3_norm -> conv4_3_norm
I0617 16:55:30.351080 27250 net.cpp:150] Setting up conv4_3_norm
I0617 16:55:30.351089 27250 net.cpp:157] Top shape: 8 512 38 38 (5914624)
I0617 16:55:30.351092 27250 net.cpp:165] Memory required for data: 1905901632
I0617 16:55:30.351097 27250 layer_factory.hpp:77] Creating layer conv4_3_norm_conv4_3_norm_0_split
I0617 16:55:30.351102 27250 net.cpp:100] Creating Layer conv4_3_norm_conv4_3_norm_0_split
I0617 16:55:30.351106 27250 net.cpp:434] conv4_3_norm_conv4_3_norm_0_split <- conv4_3_norm
I0617 16:55:30.351110 27250 net.cpp:408] conv4_3_norm_conv4_3_norm_0_split -> conv4_3_norm_conv4_3_norm_0_split_0
I0617 16:55:30.351116 27250 net.cpp:408] conv4_3_norm_conv4_3_norm_0_split -> conv4_3_norm_conv4_3_norm_0_split_1
I0617 16:55:30.351125 27250 net.cpp:408] conv4_3_norm_conv4_3_norm_0_split -> conv4_3_norm_conv4_3_norm_0_split_2
I0617 16:55:30.351169 27250 net.cpp:150] Setting up conv4_3_norm_conv4_3_norm_0_split
I0617 16:55:30.351176 27250 net.cpp:157] Top shape: 8 512 38 38 (5914624)
I0617 16:55:30.351181 27250 net.cpp:157] Top shape: 8 512 38 38 (5914624)
I0617 16:55:30.351183 27250 net.cpp:157] Top shape: 8 512 38 38 (5914624)
I0617 16:55:30.351186 27250 net.cpp:165] Memory required for data: 1976877120
I0617 16:55:30.351191 27250 layer_factory.hpp:77] Creating layer conv4_3_norm_mbox_loc
I0617 16:55:30.351203 27250 net.cpp:100] Creating Layer conv4_3_norm_mbox_loc
I0617 16:55:30.351207 27250 net.cpp:434] conv4_3_norm_mbox_loc <- conv4_3_norm_conv4_3_norm_0_split_0
I0617 16:55:30.351212 27250 net.cpp:408] conv4_3_norm_mbox_loc -> conv4_3_norm_mbox_loc
I0617 16:55:30.352000 27250 net.cpp:150] Setting up conv4_3_norm_mbox_loc
I0617 16:55:30.352011 27250 net.cpp:157] Top shape: 8 16 38 38 (184832)
I0617 16:55:30.352015 27250 net.cpp:165] Memory required for data: 1977616448
I0617 16:55:30.352032 27250 layer_factory.hpp:77] Creating layer conv4_3_norm_mbox_loc_perm
I0617 16:55:30.352044 27250 net.cpp:100] Creating Layer conv4_3_norm_mbox_loc_perm
I0617 16:55:30.352069 27250 net.cpp:434] conv4_3_norm_mbox_loc_perm <- conv4_3_norm_mbox_loc
I0617 16:55:30.352075 27250 net.cpp:408] conv4_3_norm_mbox_loc_perm -> conv4_3_norm_mbox_loc_perm
I0617 16:55:30.352177 27250 net.cpp:150] Setting up conv4_3_norm_mbox_loc_perm
I0617 16:55:30.352185 27250 net.cpp:157] Top shape: 8 38 38 16 (184832)
I0617 16:55:30.352188 27250 net.cpp:165] Memory required for data: 1978355776
I0617 16:55:30.352192 27250 layer_factory.hpp:77] Creating layer conv4_3_norm_mbox_loc_flat
I0617 16:55:30.352200 27250 net.cpp:100] Creating Layer conv4_3_norm_mbox_loc_flat
I0617 16:55:30.352203 27250 net.cpp:434] conv4_3_norm_mbox_loc_flat <- conv4_3_norm_mbox_loc_perm
I0617 16:55:30.352210 27250 net.cpp:408] conv4_3_norm_mbox_loc_flat -> conv4_3_norm_mbox_loc_flat
I0617 16:55:30.352244 27250 net.cpp:150] Setting up conv4_3_norm_mbox_loc_flat
I0617 16:55:30.352252 27250 net.cpp:157] Top shape: 8 23104 (184832)
I0617 16:55:30.352260 27250 net.cpp:165] Memory required for data: 1979095104
I0617 16:55:30.352263 27250 layer_factory.hpp:77] Creating layer conv4_3_norm_mbox_conf
I0617 16:55:30.352284 27250 net.cpp:100] Creating Layer conv4_3_norm_mbox_conf
I0617 16:55:30.352288 27250 net.cpp:434] conv4_3_norm_mbox_conf <- conv4_3_norm_conv4_3_norm_0_split_1
I0617 16:55:30.352295 27250 net.cpp:408] conv4_3_norm_mbox_conf -> conv4_3_norm_mbox_conf
I0617 16:55:30.356545 27250 net.cpp:150] Setting up conv4_3_norm_mbox_conf
I0617 16:55:30.356592 27250 net.cpp:157] Top shape: 8 84 38 38 (970368)
I0617 16:55:30.356596 27250 net.cpp:165] Memory required for data: 1982976576
I0617 16:55:30.356612 27250 layer_factory.hpp:77] Creating layer conv4_3_norm_mbox_conf_perm
I0617 16:55:30.356626 27250 net.cpp:100] Creating Layer conv4_3_norm_mbox_conf_perm
I0617 16:55:30.356633 27250 net.cpp:434] conv4_3_norm_mbox_conf_perm <- conv4_3_norm_mbox_conf
I0617 16:55:30.356647 27250 net.cpp:408] conv4_3_norm_mbox_conf_perm -> conv4_3_norm_mbox_conf_perm
I0617 16:55:30.356755 27250 net.cpp:150] Setting up conv4_3_norm_mbox_conf_perm
I0617 16:55:30.356763 27250 net.cpp:157] Top shape: 8 38 38 84 (970368)
I0617 16:55:30.356766 27250 net.cpp:165] Memory required for data: 1986858048
I0617 16:55:30.356770 27250 layer_factory.hpp:77] Creating layer conv4_3_norm_mbox_conf_flat
I0617 16:55:30.356778 27250 net.cpp:100] Creating Layer conv4_3_norm_mbox_conf_flat
I0617 16:55:30.356783 27250 net.cpp:434] conv4_3_norm_mbox_conf_flat <- conv4_3_norm_mbox_conf_perm
I0617 16:55:30.356788 27250 net.cpp:408] conv4_3_norm_mbox_conf_flat -> conv4_3_norm_mbox_conf_flat
I0617 16:55:30.356812 27250 net.cpp:150] Setting up conv4_3_norm_mbox_conf_flat
I0617 16:55:30.356817 27250 net.cpp:157] Top shape: 8 121296 (970368)
I0617 16:55:30.356820 27250 net.cpp:165] Memory required for data: 1990739520
I0617 16:55:30.356823 27250 layer_factory.hpp:77] Creating layer conv4_3_norm_mbox_priorbox
I0617 16:55:30.356835 27250 net.cpp:100] Creating Layer conv4_3_norm_mbox_priorbox
I0617 16:55:30.356839 27250 net.cpp:434] conv4_3_norm_mbox_priorbox <- conv4_3_norm_conv4_3_norm_0_split_2
I0617 16:55:30.356845 27250 net.cpp:434] conv4_3_norm_mbox_priorbox <- data_data_0_split_1
I0617 16:55:30.356853 27250 net.cpp:408] conv4_3_norm_mbox_priorbox -> conv4_3_norm_mbox_priorbox
I0617 16:55:30.356883 27250 net.cpp:150] Setting up conv4_3_norm_mbox_priorbox
I0617 16:55:30.356887 27250 net.cpp:157] Top shape: 1 2 23104 (46208)
I0617 16:55:30.356890 27250 net.cpp:165] Memory required for data: 1990924352
I0617 16:55:30.356894 27250 layer_factory.hpp:77] Creating layer fc7_mbox_loc
I0617 16:55:30.356909 27250 net.cpp:100] Creating Layer fc7_mbox_loc
I0617 16:55:30.356914 27250 net.cpp:434] fc7_mbox_loc <- fc7_relu7_0_split_1
I0617 16:55:30.356919 27250 net.cpp:408] fc7_mbox_loc -> fc7_mbox_loc
I0617 16:55:30.359367 27250 net.cpp:150] Setting up fc7_mbox_loc
I0617 16:55:30.359383 27250 net.cpp:157] Top shape: 8 24 19 19 (69312)
I0617 16:55:30.359398 27250 net.cpp:165] Memory required for data: 1991201600
I0617 16:55:30.359405 27250 layer_factory.hpp:77] Creating layer fc7_mbox_loc_perm
I0617 16:55:30.359436 27250 net.cpp:100] Creating Layer fc7_mbox_loc_perm
I0617 16:55:30.359442 27250 net.cpp:434] fc7_mbox_loc_perm <- fc7_mbox_loc
I0617 16:55:30.359449 27250 net.cpp:408] fc7_mbox_loc_perm -> fc7_mbox_loc_perm
I0617 16:55:30.359552 27250 net.cpp:150] Setting up fc7_mbox_loc_perm
I0617 16:55:30.359566 27250 net.cpp:157] Top shape: 8 19 19 24 (69312)
I0617 16:55:30.359570 27250 net.cpp:165] Memory required for data: 1991478848
I0617 16:55:30.359573 27250 layer_factory.hpp:77] Creating layer fc7_mbox_loc_flat
I0617 16:55:30.359730 27250 net.cpp:100] Creating Layer fc7_mbox_loc_flat
I0617 16:55:30.359735 27250 net.cpp:434] fc7_mbox_loc_flat <- fc7_mbox_loc_perm
I0617 16:55:30.359743 27250 net.cpp:408] fc7_mbox_loc_flat -> fc7_mbox_loc_flat
I0617 16:55:30.359779 27250 net.cpp:150] Setting up fc7_mbox_loc_flat
I0617 16:55:30.359786 27250 net.cpp:157] Top shape: 8 8664 (69312)
I0617 16:55:30.359789 27250 net.cpp:165] Memory required for data: 1991756096
I0617 16:55:30.359793 27250 layer_factory.hpp:77] Creating layer fc7_mbox_conf
I0617 16:55:30.359808 27250 net.cpp:100] Creating Layer fc7_mbox_conf
I0617 16:55:30.359813 27250 net.cpp:434] fc7_mbox_conf <- fc7_relu7_0_split_2
I0617 16:55:30.359819 27250 net.cpp:408] fc7_mbox_conf -> fc7_mbox_conf
I0617 16:55:30.372380 27250 net.cpp:150] Setting up fc7_mbox_conf
I0617 16:55:30.372439 27250 net.cpp:157] Top shape: 8 126 19 19 (363888)
I0617 16:55:30.372445 27250 net.cpp:165] Memory required for data: 1993211648
I0617 16:55:30.372462 27250 layer_factory.hpp:77] Creating layer fc7_mbox_conf_perm
I0617 16:55:30.372510 27250 net.cpp:100] Creating Layer fc7_mbox_conf_perm
I0617 16:55:30.372524 27250 net.cpp:434] fc7_mbox_conf_perm <- fc7_mbox_conf
I0617 16:55:30.372539 27250 net.cpp:408] fc7_mbox_conf_perm -> fc7_mbox_conf_perm
I0617 16:55:30.372660 27250 net.cpp:150] Setting up fc7_mbox_conf_perm
I0617 16:55:30.372670 27250 net.cpp:157] Top shape: 8 19 19 126 (363888)
I0617 16:55:30.372673 27250 net.cpp:165] Memory required for data: 1994667200
I0617 16:55:30.372678 27250 layer_factory.hpp:77] Creating layer fc7_mbox_conf_flat
I0617 16:55:30.372690 27250 net.cpp:100] Creating Layer fc7_mbox_conf_flat
I0617 16:55:30.372695 27250 net.cpp:434] fc7_mbox_conf_flat <- fc7_mbox_conf_perm
I0617 16:55:30.372702 27250 net.cpp:408] fc7_mbox_conf_flat -> fc7_mbox_conf_flat
I0617 16:55:30.372727 27250 net.cpp:150] Setting up fc7_mbox_conf_flat
I0617 16:55:30.372735 27250 net.cpp:157] Top shape: 8 45486 (363888)
I0617 16:55:30.372737 27250 net.cpp:165] Memory required for data: 1996122752
I0617 16:55:30.372740 27250 layer_factory.hpp:77] Creating layer fc7_mbox_priorbox
I0617 16:55:30.372755 27250 net.cpp:100] Creating Layer fc7_mbox_priorbox
I0617 16:55:30.372759 27250 net.cpp:434] fc7_mbox_priorbox <- fc7_relu7_0_split_3
I0617 16:55:30.372776 27250 net.cpp:434] fc7_mbox_priorbox <- data_data_0_split_2
I0617 16:55:30.372784 27250 net.cpp:408] fc7_mbox_priorbox -> fc7_mbox_priorbox
I0617 16:55:30.372823 27250 net.cpp:150] Setting up fc7_mbox_priorbox
I0617 16:55:30.372830 27250 net.cpp:157] Top shape: 1 2 8664 (17328)
I0617 16:55:30.372833 27250 net.cpp:165] Memory required for data: 1996192064
I0617 16:55:30.372838 27250 layer_factory.hpp:77] Creating layer conv6_2_mbox_loc
I0617 16:55:30.372853 27250 net.cpp:100] Creating Layer conv6_2_mbox_loc
I0617 16:55:30.372860 27250 net.cpp:434] conv6_2_mbox_loc <- conv6_2_conv6_2_relu_0_split_1
I0617 16:55:30.372869 27250 net.cpp:408] conv6_2_mbox_loc -> conv6_2_mbox_loc
I0617 16:55:30.374691 27250 net.cpp:150] Setting up conv6_2_mbox_loc
I0617 16:55:30.374703 27250 net.cpp:157] Top shape: 8 24 10 10 (19200)
I0617 16:55:30.374718 27250 net.cpp:165] Memory required for data: 1996268864
I0617 16:55:30.374725 27250 layer_factory.hpp:77] Creating layer conv6_2_mbox_loc_perm
I0617 16:55:30.374733 27250 net.cpp:100] Creating Layer conv6_2_mbox_loc_perm
I0617 16:55:30.374738 27250 net.cpp:434] conv6_2_mbox_loc_perm <- conv6_2_mbox_loc
I0617 16:55:30.374749 27250 net.cpp:408] conv6_2_mbox_loc_perm -> conv6_2_mbox_loc_perm
I0617 16:55:30.374876 27250 net.cpp:150] Setting up conv6_2_mbox_loc_perm
I0617 16:55:30.374886 27250 net.cpp:157] Top shape: 8 10 10 24 (19200)
I0617 16:55:30.374889 27250 net.cpp:165] Memory required for data: 1996345664
I0617 16:55:30.374900 27250 layer_factory.hpp:77] Creating layer conv6_2_mbox_loc_flat
I0617 16:55:30.374909 27250 net.cpp:100] Creating Layer conv6_2_mbox_loc_flat
I0617 16:55:30.374912 27250 net.cpp:434] conv6_2_mbox_loc_flat <- conv6_2_mbox_loc_perm
I0617 16:55:30.374919 27250 net.cpp:408] conv6_2_mbox_loc_flat -> conv6_2_mbox_loc_flat
I0617 16:55:30.374941 27250 net.cpp:150] Setting up conv6_2_mbox_loc_flat
I0617 16:55:30.374946 27250 net.cpp:157] Top shape: 8 2400 (19200)
I0617 16:55:30.374949 27250 net.cpp:165] Memory required for data: 1996422464
I0617 16:55:30.374954 27250 layer_factory.hpp:77] Creating layer conv6_2_mbox_conf
I0617 16:55:30.374969 27250 net.cpp:100] Creating Layer conv6_2_mbox_conf
I0617 16:55:30.374974 27250 net.cpp:434] conv6_2_mbox_conf <- conv6_2_conv6_2_relu_0_split_2
I0617 16:55:30.374979 27250 net.cpp:408] conv6_2_mbox_conf -> conv6_2_mbox_conf
I0617 16:55:30.380463 27250 net.cpp:150] Setting up conv6_2_mbox_conf
I0617 16:55:30.380517 27250 net.cpp:157] Top shape: 8 126 10 10 (100800)
I0617 16:55:30.380520 27250 net.cpp:165] Memory required for data: 1996825664
I0617 16:55:30.380529 27250 layer_factory.hpp:77] Creating layer conv6_2_mbox_conf_perm
I0617 16:55:30.380548 27250 net.cpp:100] Creating Layer conv6_2_mbox_conf_perm
I0617 16:55:30.380553 27250 net.cpp:434] conv6_2_mbox_conf_perm <- conv6_2_mbox_conf
I0617 16:55:30.380564 27250 net.cpp:408] conv6_2_mbox_conf_perm -> conv6_2_mbox_conf_perm
I0617 16:55:30.380673 27250 net.cpp:150] Setting up conv6_2_mbox_conf_perm
I0617 16:55:30.380683 27250 net.cpp:157] Top shape: 8 10 10 126 (100800)
I0617 16:55:30.380687 27250 net.cpp:165] Memory required for data: 1997228864
I0617 16:55:30.380690 27250 layer_factory.hpp:77] Creating layer conv6_2_mbox_conf_flat
I0617 16:55:30.380698 27250 net.cpp:100] Creating Layer conv6_2_mbox_conf_flat
I0617 16:55:30.380703 27250 net.cpp:434] conv6_2_mbox_conf_flat <- conv6_2_mbox_conf_perm
I0617 16:55:30.380708 27250 net.cpp:408] conv6_2_mbox_conf_flat -> conv6_2_mbox_conf_flat
I0617 16:55:30.380734 27250 net.cpp:150] Setting up conv6_2_mbox_conf_flat
I0617 16:55:30.380740 27250 net.cpp:157] Top shape: 8 12600 (100800)
I0617 16:55:30.380743 27250 net.cpp:165] Memory required for data: 1997632064
I0617 16:55:30.380746 27250 layer_factory.hpp:77] Creating layer conv6_2_mbox_priorbox
I0617 16:55:30.380758 27250 net.cpp:100] Creating Layer conv6_2_mbox_priorbox
I0617 16:55:30.380761 27250 net.cpp:434] conv6_2_mbox_priorbox <- conv6_2_conv6_2_relu_0_split_3
I0617 16:55:30.380767 27250 net.cpp:434] conv6_2_mbox_priorbox <- data_data_0_split_3
I0617 16:55:30.380774 27250 net.cpp:408] conv6_2_mbox_priorbox -> conv6_2_mbox_priorbox
I0617 16:55:30.380800 27250 net.cpp:150] Setting up conv6_2_mbox_priorbox
I0617 16:55:30.380805 27250 net.cpp:157] Top shape: 1 2 2400 (4800)
I0617 16:55:30.380808 27250 net.cpp:165] Memory required for data: 1997651264
I0617 16:55:30.380811 27250 layer_factory.hpp:77] Creating layer conv7_2_mbox_loc
I0617 16:55:30.380825 27250 net.cpp:100] Creating Layer conv7_2_mbox_loc
I0617 16:55:30.380831 27250 net.cpp:434] conv7_2_mbox_loc <- conv7_2_conv7_2_relu_0_split_1
I0617 16:55:30.380837 27250 net.cpp:408] conv7_2_mbox_loc -> conv7_2_mbox_loc
I0617 16:55:30.381453 27250 net.cpp:150] Setting up conv7_2_mbox_loc
I0617 16:55:30.381464 27250 net.cpp:157] Top shape: 8 24 5 5 (4800)
I0617 16:55:30.381466 27250 net.cpp:165] Memory required for data: 1997670464
I0617 16:55:30.381484 27250 layer_factory.hpp:77] Creating layer conv7_2_mbox_loc_perm
I0617 16:55:30.381491 27250 net.cpp:100] Creating Layer conv7_2_mbox_loc_perm
I0617 16:55:30.381495 27250 net.cpp:434] conv7_2_mbox_loc_perm <- conv7_2_mbox_loc
I0617 16:55:30.381500 27250 net.cpp:408] conv7_2_mbox_loc_perm -> conv7_2_mbox_loc_perm
I0617 16:55:30.381613 27250 net.cpp:150] Setting up conv7_2_mbox_loc_perm
I0617 16:55:30.381640 27250 net.cpp:157] Top shape: 8 5 5 24 (4800)
I0617 16:55:30.381644 27250 net.cpp:165] Memory required for data: 1997689664
I0617 16:55:30.381647 27250 layer_factory.hpp:77] Creating layer conv7_2_mbox_loc_flat
I0617 16:55:30.381654 27250 net.cpp:100] Creating Layer conv7_2_mbox_loc_flat
I0617 16:55:30.381659 27250 net.cpp:434] conv7_2_mbox_loc_flat <- conv7_2_mbox_loc_perm
I0617 16:55:30.381665 27250 net.cpp:408] conv7_2_mbox_loc_flat -> conv7_2_mbox_loc_flat
I0617 16:55:30.381692 27250 net.cpp:150] Setting up conv7_2_mbox_loc_flat
I0617 16:55:30.381698 27250 net.cpp:157] Top shape: 8 600 (4800)
I0617 16:55:30.381701 27250 net.cpp:165] Memory required for data: 1997708864
I0617 16:55:30.381705 27250 layer_factory.hpp:77] Creating layer conv7_2_mbox_conf
I0617 16:55:30.381718 27250 net.cpp:100] Creating Layer conv7_2_mbox_conf
I0617 16:55:30.381723 27250 net.cpp:434] conv7_2_mbox_conf <- conv7_2_conv7_2_relu_0_split_2
I0617 16:55:30.381731 27250 net.cpp:408] conv7_2_mbox_conf -> conv7_2_mbox_conf
I0617 16:55:30.384703 27250 net.cpp:150] Setting up conv7_2_mbox_conf
I0617 16:55:30.384717 27250 net.cpp:157] Top shape: 8 126 5 5 (25200)
I0617 16:55:30.384732 27250 net.cpp:165] Memory required for data: 1997809664
I0617 16:55:30.384737 27250 layer_factory.hpp:77] Creating layer conv7_2_mbox_conf_perm
I0617 16:55:30.384747 27250 net.cpp:100] Creating Layer conv7_2_mbox_conf_perm
I0617 16:55:30.384752 27250 net.cpp:434] conv7_2_mbox_conf_perm <- conv7_2_mbox_conf
I0617 16:55:30.384758 27250 net.cpp:408] conv7_2_mbox_conf_perm -> conv7_2_mbox_conf_perm
I0617 16:55:30.384856 27250 net.cpp:150] Setting up conv7_2_mbox_conf_perm
I0617 16:55:30.384865 27250 net.cpp:157] Top shape: 8 5 5 126 (25200)
I0617 16:55:30.384867 27250 net.cpp:165] Memory required for data: 1997910464
I0617 16:55:30.384871 27250 layer_factory.hpp:77] Creating layer conv7_2_mbox_conf_flat
I0617 16:55:30.384881 27250 net.cpp:100] Creating Layer conv7_2_mbox_conf_flat
I0617 16:55:30.384884 27250 net.cpp:434] conv7_2_mbox_conf_flat <- conv7_2_mbox_conf_perm
I0617 16:55:30.384889 27250 net.cpp:408] conv7_2_mbox_conf_flat -> conv7_2_mbox_conf_flat
I0617 16:55:30.384912 27250 net.cpp:150] Setting up conv7_2_mbox_conf_flat
I0617 16:55:30.384917 27250 net.cpp:157] Top shape: 8 3150 (25200)
I0617 16:55:30.384920 27250 net.cpp:165] Memory required for data: 1998011264
I0617 16:55:30.384923 27250 layer_factory.hpp:77] Creating layer conv7_2_mbox_priorbox
I0617 16:55:30.384929 27250 net.cpp:100] Creating Layer conv7_2_mbox_priorbox
I0617 16:55:30.384933 27250 net.cpp:434] conv7_2_mbox_priorbox <- conv7_2_conv7_2_relu_0_split_3
I0617 16:55:30.384940 27250 net.cpp:434] conv7_2_mbox_priorbox <- data_data_0_split_4
I0617 16:55:30.384945 27250 net.cpp:408] conv7_2_mbox_priorbox -> conv7_2_mbox_priorbox
I0617 16:55:30.384969 27250 net.cpp:150] Setting up conv7_2_mbox_priorbox
I0617 16:55:30.384974 27250 net.cpp:157] Top shape: 1 2 600 (1200)
I0617 16:55:30.384977 27250 net.cpp:165] Memory required for data: 1998016064
I0617 16:55:30.384980 27250 layer_factory.hpp:77] Creating layer conv8_2_mbox_loc
I0617 16:55:30.384994 27250 net.cpp:100] Creating Layer conv8_2_mbox_loc
I0617 16:55:30.384997 27250 net.cpp:434] conv8_2_mbox_loc <- conv8_2_conv8_2_relu_0_split_1
I0617 16:55:30.385006 27250 net.cpp:408] conv8_2_mbox_loc -> conv8_2_mbox_loc
I0617 16:55:30.385485 27250 net.cpp:150] Setting up conv8_2_mbox_loc
I0617 16:55:30.385494 27250 net.cpp:157] Top shape: 8 16 3 3 (1152)
I0617 16:55:30.385498 27250 net.cpp:165] Memory required for data: 1998020672
I0617 16:55:30.385545 27250 layer_factory.hpp:77] Creating layer conv8_2_mbox_loc_perm
I0617 16:55:30.385556 27250 net.cpp:100] Creating Layer conv8_2_mbox_loc_perm
I0617 16:55:30.385562 27250 net.cpp:434] conv8_2_mbox_loc_perm <- conv8_2_mbox_loc
I0617 16:55:30.385568 27250 net.cpp:408] conv8_2_mbox_loc_perm -> conv8_2_mbox_loc_perm
I0617 16:55:30.385670 27250 net.cpp:150] Setting up conv8_2_mbox_loc_perm
I0617 16:55:30.385679 27250 net.cpp:157] Top shape: 8 3 3 16 (1152)
I0617 16:55:30.385692 27250 net.cpp:165] Memory required for data: 1998025280
I0617 16:55:30.385697 27250 layer_factory.hpp:77] Creating layer conv8_2_mbox_loc_flat
I0617 16:55:30.385704 27250 net.cpp:100] Creating Layer conv8_2_mbox_loc_flat
I0617 16:55:30.385707 27250 net.cpp:434] conv8_2_mbox_loc_flat <- conv8_2_mbox_loc_perm
I0617 16:55:30.385715 27250 net.cpp:408] conv8_2_mbox_loc_flat -> conv8_2_mbox_loc_flat
I0617 16:55:30.385738 27250 net.cpp:150] Setting up conv8_2_mbox_loc_flat
I0617 16:55:30.385746 27250 net.cpp:157] Top shape: 8 144 (1152)
I0617 16:55:30.385747 27250 net.cpp:165] Memory required for data: 1998029888
I0617 16:55:30.385751 27250 layer_factory.hpp:77] Creating layer conv8_2_mbox_conf
I0617 16:55:30.385763 27250 net.cpp:100] Creating Layer conv8_2_mbox_conf
I0617 16:55:30.385768 27250 net.cpp:434] conv8_2_mbox_conf <- conv8_2_conv8_2_relu_0_split_2
I0617 16:55:30.385774 27250 net.cpp:408] conv8_2_mbox_conf -> conv8_2_mbox_conf
I0617 16:55:30.387874 27250 net.cpp:150] Setting up conv8_2_mbox_conf
I0617 16:55:30.387890 27250 net.cpp:157] Top shape: 8 84 3 3 (6048)
I0617 16:55:30.387893 27250 net.cpp:165] Memory required for data: 1998054080
I0617 16:55:30.387899 27250 layer_factory.hpp:77] Creating layer conv8_2_mbox_conf_perm
I0617 16:55:30.387909 27250 net.cpp:100] Creating Layer conv8_2_mbox_conf_perm
I0617 16:55:30.387914 27250 net.cpp:434] conv8_2_mbox_conf_perm <- conv8_2_mbox_conf
I0617 16:55:30.387919 27250 net.cpp:408] conv8_2_mbox_conf_perm -> conv8_2_mbox_conf_perm
I0617 16:55:30.388031 27250 net.cpp:150] Setting up conv8_2_mbox_conf_perm
I0617 16:55:30.388039 27250 net.cpp:157] Top shape: 8 3 3 84 (6048)
I0617 16:55:30.388042 27250 net.cpp:165] Memory required for data: 1998078272
I0617 16:55:30.388046 27250 layer_factory.hpp:77] Creating layer conv8_2_mbox_conf_flat
I0617 16:55:30.388051 27250 net.cpp:100] Creating Layer conv8_2_mbox_conf_flat
I0617 16:55:30.388057 27250 net.cpp:434] conv8_2_mbox_conf_flat <- conv8_2_mbox_conf_perm
I0617 16:55:30.388062 27250 net.cpp:408] conv8_2_mbox_conf_flat -> conv8_2_mbox_conf_flat
I0617 16:55:30.388083 27250 net.cpp:150] Setting up conv8_2_mbox_conf_flat
I0617 16:55:30.388089 27250 net.cpp:157] Top shape: 8 756 (6048)
I0617 16:55:30.388092 27250 net.cpp:165] Memory required for data: 1998102464
I0617 16:55:30.388094 27250 layer_factory.hpp:77] Creating layer conv8_2_mbox_priorbox
I0617 16:55:30.388105 27250 net.cpp:100] Creating Layer conv8_2_mbox_priorbox
I0617 16:55:30.388108 27250 net.cpp:434] conv8_2_mbox_priorbox <- conv8_2_conv8_2_relu_0_split_3
I0617 16:55:30.388113 27250 net.cpp:434] conv8_2_mbox_priorbox <- data_data_0_split_5
I0617 16:55:30.388119 27250 net.cpp:408] conv8_2_mbox_priorbox -> conv8_2_mbox_priorbox
I0617 16:55:30.388144 27250 net.cpp:150] Setting up conv8_2_mbox_priorbox
I0617 16:55:30.388149 27250 net.cpp:157] Top shape: 1 2 144 (288)
I0617 16:55:30.388151 27250 net.cpp:165] Memory required for data: 1998103616
I0617 16:55:30.388154 27250 layer_factory.hpp:77] Creating layer conv9_2_mbox_loc
I0617 16:55:30.388170 27250 net.cpp:100] Creating Layer conv9_2_mbox_loc
I0617 16:55:30.388175 27250 net.cpp:434] conv9_2_mbox_loc <- conv9_2_conv9_2_relu_0_split_0
I0617 16:55:30.388180 27250 net.cpp:408] conv9_2_mbox_loc -> conv9_2_mbox_loc
I0617 16:55:30.388666 27250 net.cpp:150] Setting up conv9_2_mbox_loc
I0617 16:55:30.388675 27250 net.cpp:157] Top shape: 8 16 1 1 (128)
I0617 16:55:30.388679 27250 net.cpp:165] Memory required for data: 1998104128
I0617 16:55:30.388695 27250 layer_factory.hpp:77] Creating layer conv9_2_mbox_loc_perm
I0617 16:55:30.388703 27250 net.cpp:100] Creating Layer conv9_2_mbox_loc_perm
I0617 16:55:30.388710 27250 net.cpp:434] conv9_2_mbox_loc_perm <- conv9_2_mbox_loc
I0617 16:55:30.388713 27250 net.cpp:408] conv9_2_mbox_loc_perm -> conv9_2_mbox_loc_perm
I0617 16:55:30.388808 27250 net.cpp:150] Setting up conv9_2_mbox_loc_perm
I0617 16:55:30.388815 27250 net.cpp:157] Top shape: 8 1 1 16 (128)
I0617 16:55:30.388818 27250 net.cpp:165] Memory required for data: 1998104640
I0617 16:55:30.388821 27250 layer_factory.hpp:77] Creating layer conv9_2_mbox_loc_flat
I0617 16:55:30.388842 27250 net.cpp:100] Creating Layer conv9_2_mbox_loc_flat
I0617 16:55:30.388847 27250 net.cpp:434] conv9_2_mbox_loc_flat <- conv9_2_mbox_loc_perm
I0617 16:55:30.388854 27250 net.cpp:408] conv9_2_mbox_loc_flat -> conv9_2_mbox_loc_flat
I0617 16:55:30.388877 27250 net.cpp:150] Setting up conv9_2_mbox_loc_flat
I0617 16:55:30.388885 27250 net.cpp:157] Top shape: 8 16 (128)
I0617 16:55:30.388887 27250 net.cpp:165] Memory required for data: 1998105152
I0617 16:55:30.388891 27250 layer_factory.hpp:77] Creating layer conv9_2_mbox_conf
I0617 16:55:30.388901 27250 net.cpp:100] Creating Layer conv9_2_mbox_conf
I0617 16:55:30.388906 27250 net.cpp:434] conv9_2_mbox_conf <- conv9_2_conv9_2_relu_0_split_1
I0617 16:55:30.388911 27250 net.cpp:408] conv9_2_mbox_conf -> conv9_2_mbox_conf
I0617 16:55:30.391204 27250 net.cpp:150] Setting up conv9_2_mbox_conf
I0617 16:55:30.391247 27250 net.cpp:157] Top shape: 8 84 1 1 (672)
I0617 16:55:30.391250 27250 net.cpp:165] Memory required for data: 1998107840
I0617 16:55:30.391258 27250 layer_factory.hpp:77] Creating layer conv9_2_mbox_conf_perm
I0617 16:55:30.391269 27250 net.cpp:100] Creating Layer conv9_2_mbox_conf_perm
I0617 16:55:30.391274 27250 net.cpp:434] conv9_2_mbox_conf_perm <- conv9_2_mbox_conf
I0617 16:55:30.391281 27250 net.cpp:408] conv9_2_mbox_conf_perm -> conv9_2_mbox_conf_perm
I0617 16:55:30.391386 27250 net.cpp:150] Setting up conv9_2_mbox_conf_perm
I0617 16:55:30.391392 27250 net.cpp:157] Top shape: 8 1 1 84 (672)
I0617 16:55:30.391396 27250 net.cpp:165] Memory required for data: 1998110528
I0617 16:55:30.391399 27250 layer_factory.hpp:77] Creating layer conv9_2_mbox_conf_flat
I0617 16:55:30.391405 27250 net.cpp:100] Creating Layer conv9_2_mbox_conf_flat
I0617 16:55:30.391415 27250 net.cpp:434] conv9_2_mbox_conf_flat <- conv9_2_mbox_conf_perm
I0617 16:55:30.391422 27250 net.cpp:408] conv9_2_mbox_conf_flat -> conv9_2_mbox_conf_flat
I0617 16:55:30.391444 27250 net.cpp:150] Setting up conv9_2_mbox_conf_flat
I0617 16:55:30.391451 27250 net.cpp:157] Top shape: 8 84 (672)
I0617 16:55:30.391454 27250 net.cpp:165] Memory required for data: 1998113216
I0617 16:55:30.391458 27250 layer_factory.hpp:77] Creating layer conv9_2_mbox_priorbox
I0617 16:55:30.391469 27250 net.cpp:100] Creating Layer conv9_2_mbox_priorbox
I0617 16:55:30.391471 27250 net.cpp:434] conv9_2_mbox_priorbox <- conv9_2_conv9_2_relu_0_split_2
I0617 16:55:30.391476 27250 net.cpp:434] conv9_2_mbox_priorbox <- data_data_0_split_6
I0617 16:55:30.391481 27250 net.cpp:408] conv9_2_mbox_priorbox -> conv9_2_mbox_priorbox
I0617 16:55:30.391511 27250 net.cpp:150] Setting up conv9_2_mbox_priorbox
I0617 16:55:30.391516 27250 net.cpp:157] Top shape: 1 2 16 (32)
I0617 16:55:30.391520 27250 net.cpp:165] Memory required for data: 1998113344
I0617 16:55:30.391523 27250 layer_factory.hpp:77] Creating layer mbox_loc
I0617 16:55:30.391535 27250 net.cpp:100] Creating Layer mbox_loc
I0617 16:55:30.391542 27250 net.cpp:434] mbox_loc <- conv4_3_norm_mbox_loc_flat
I0617 16:55:30.391547 27250 net.cpp:434] mbox_loc <- fc7_mbox_loc_flat
I0617 16:55:30.391553 27250 net.cpp:434] mbox_loc <- conv6_2_mbox_loc_flat
I0617 16:55:30.391572 27250 net.cpp:434] mbox_loc <- conv7_2_mbox_loc_flat
I0617 16:55:30.391753 27250 net.cpp:434] mbox_loc <- conv8_2_mbox_loc_flat
I0617 16:55:30.391892 27250 net.cpp:434] mbox_loc <- conv9_2_mbox_loc_flat
I0617 16:55:30.391898 27250 net.cpp:408] mbox_loc -> mbox_loc
I0617 16:55:30.391937 27250 net.cpp:150] Setting up mbox_loc
I0617 16:55:30.391942 27250 net.cpp:157] Top shape: 8 34928 (279424)
I0617 16:55:30.391945 27250 net.cpp:165] Memory required for data: 1999231040
I0617 16:55:30.391949 27250 layer_factory.hpp:77] Creating layer mbox_conf
I0617 16:55:30.391957 27250 net.cpp:100] Creating Layer mbox_conf
I0617 16:55:30.391971 27250 net.cpp:434] mbox_conf <- conv4_3_norm_mbox_conf_flat
I0617 16:55:30.391976 27250 net.cpp:434] mbox_conf <- fc7_mbox_conf_flat
I0617 16:55:30.391981 27250 net.cpp:434] mbox_conf <- conv6_2_mbox_conf_flat
I0617 16:55:30.391986 27250 net.cpp:434] mbox_conf <- conv7_2_mbox_conf_flat
I0617 16:55:30.392005 27250 net.cpp:434] mbox_conf <- conv8_2_mbox_conf_flat
I0617 16:55:30.392010 27250 net.cpp:434] mbox_conf <- conv9_2_mbox_conf_flat
I0617 16:55:30.392015 27250 net.cpp:408] mbox_conf -> mbox_conf
I0617 16:55:30.392043 27250 net.cpp:150] Setting up mbox_conf
I0617 16:55:30.392050 27250 net.cpp:157] Top shape: 8 183372 (1466976)
I0617 16:55:30.392053 27250 net.cpp:165] Memory required for data: 2005098944
I0617 16:55:30.392057 27250 layer_factory.hpp:77] Creating layer mbox_priorbox
I0617 16:55:30.392063 27250 net.cpp:100] Creating Layer mbox_priorbox
I0617 16:55:30.392067 27250 net.cpp:434] mbox_priorbox <- conv4_3_norm_mbox_priorbox
I0617 16:55:30.392071 27250 net.cpp:434] mbox_priorbox <- fc7_mbox_priorbox
I0617 16:55:30.392076 27250 net.cpp:434] mbox_priorbox <- conv6_2_mbox_priorbox
I0617 16:55:30.392079 27250 net.cpp:434] mbox_priorbox <- conv7_2_mbox_priorbox
I0617 16:55:30.392083 27250 net.cpp:434] mbox_priorbox <- conv8_2_mbox_priorbox
I0617 16:55:30.392087 27250 net.cpp:434] mbox_priorbox <- conv9_2_mbox_priorbox
I0617 16:55:30.392091 27250 net.cpp:408] mbox_priorbox -> mbox_priorbox
I0617 16:55:30.392115 27250 net.cpp:150] Setting up mbox_priorbox
I0617 16:55:30.392122 27250 net.cpp:157] Top shape: 1 2 34928 (69856)
I0617 16:55:30.392124 27250 net.cpp:165] Memory required for data: 2005378368
I0617 16:55:30.392128 27250 layer_factory.hpp:77] Creating layer mbox_conf_reshape
I0617 16:55:30.392138 27250 net.cpp:100] Creating Layer mbox_conf_reshape
I0617 16:55:30.392144 27250 net.cpp:434] mbox_conf_reshape <- mbox_conf
I0617 16:55:30.392163 27250 net.cpp:408] mbox_conf_reshape -> mbox_conf_reshape
I0617 16:55:30.392197 27250 net.cpp:150] Setting up mbox_conf_reshape
I0617 16:55:30.392205 27250 net.cpp:157] Top shape: 8 8732 21 (1466976)
I0617 16:55:30.392208 27250 net.cpp:165] Memory required for data: 2011246272
I0617 16:55:30.392211 27250 layer_factory.hpp:77] Creating layer mbox_conf_softmax
I0617 16:55:30.392220 27250 net.cpp:100] Creating Layer mbox_conf_softmax
I0617 16:55:30.392222 27250 net.cpp:434] mbox_conf_softmax <- mbox_conf_reshape
I0617 16:55:30.392228 27250 net.cpp:408] mbox_conf_softmax -> mbox_conf_softmax
I0617 16:55:30.392298 27250 net.cpp:150] Setting up mbox_conf_softmax
I0617 16:55:30.392305 27250 net.cpp:157] Top shape: 8 8732 21 (1466976)
I0617 16:55:30.392308 27250 net.cpp:165] Memory required for data: 2017114176
I0617 16:55:30.392312 27250 layer_factory.hpp:77] Creating layer mbox_conf_flatten
I0617 16:55:30.392319 27250 net.cpp:100] Creating Layer mbox_conf_flatten
I0617 16:55:30.392323 27250 net.cpp:434] mbox_conf_flatten <- mbox_conf_softmax
I0617 16:55:30.392328 27250 net.cpp:408] mbox_conf_flatten -> mbox_conf_flatten
I0617 16:55:30.392348 27250 net.cpp:150] Setting up mbox_conf_flatten
I0617 16:55:30.392354 27250 net.cpp:157] Top shape: 8 183372 (1466976)
I0617 16:55:30.392356 27250 net.cpp:165] Memory required for data: 2022982080
I0617 16:55:30.392359 27250 layer_factory.hpp:77] Creating layer detection_out
I0617 16:55:30.392385 27250 net.cpp:100] Creating Layer detection_out
I0617 16:55:30.392390 27250 net.cpp:434] detection_out <- mbox_loc
I0617 16:55:30.392393 27250 net.cpp:434] detection_out <- mbox_conf_flatten
I0617 16:55:30.392397 27250 net.cpp:434] detection_out <- mbox_priorbox
I0617 16:55:30.392402 27250 net.cpp:408] detection_out -> detection_out
I0617 16:55:30.395195 27250 net.cpp:150] Setting up detection_out
I0617 16:55:30.395210 27250 net.cpp:157] Top shape: 1 1 1 7 (7)
I0617 16:55:30.395215 27250 net.cpp:165] Memory required for data: 2022982108
I0617 16:55:30.395218 27250 layer_factory.hpp:77] Creating layer detection_eval
I0617 16:55:30.395241 27250 net.cpp:100] Creating Layer detection_eval
I0617 16:55:30.395246 27250 net.cpp:434] detection_eval <- detection_out
I0617 16:55:30.395251 27250 net.cpp:434] detection_eval <- label
I0617 16:55:30.395256 27250 net.cpp:408] detection_eval -> detection_eval
I0617 16:55:30.396236 27250 net.cpp:150] Setting up detection_eval
I0617 16:55:30.396248 27250 net.cpp:157] Top shape: 1 1 21 5 (105)
I0617 16:55:30.396280 27250 net.cpp:165] Memory required for data: 2022982528
I0617 16:55:30.396284 27250 net.cpp:228] detection_eval does not need backward computation.
I0617 16:55:30.396288 27250 net.cpp:228] detection_out does not need backward computation.
I0617 16:55:30.396292 27250 net.cpp:228] mbox_conf_flatten does not need backward computation.
I0617 16:55:30.396296 27250 net.cpp:228] mbox_conf_softmax does not need backward computation.
…
